fdlite/data/face_detection_front.onnx (onnx, 418463 bytes, 70 tensors)

const_fold_opt__487 f4 [48, 1, 3, 3]
0	0x3f7ae000	0.97998047
1	0x3f424000	0.75878906
2	0xbf1b0000	-0.60546875
3	0xbe208000	-0.15673828
4	0xbf976000	-1.1826172
5	0xbef98000	-0.4873047
6	0xbf954000	-1.1660156
7	0xbfa4e000	-1.2880859
8	0xbe9a0000	-0.30078125
9	0x3f388000	0.7207031
10	0x3f864000	1.0488281
11	0x3f340000	0.703125
12	0x3ef7e000	0.48413086
13	0x3f76a000	0.9633789
14	0x3db26000	0.08709717
15	0xbd178000	-0.036987305
16	0xbe740000	-0.23828125
17	0xbc438000	-0.011932373
18	0x3e330000	0.17480469
19	0x3f81e000	1.0146484
20	0x3e6b6000	0.2298584
21	0x3f7ea000	0.9946289
22	0x3ffb6000	1.9638672
23	0x3d97e000	0.074157715
24	0x3ec84000	0.39111328
25	0x3eb5e000	0.3552246
26	0xbe228000	-0.1586914
27	0xbd136000	-0.035980225
28	0xbf8ea000	-1.1142578
29	0x3f164000	0.58691406
30	0xbdbe6000	-0.09295654
31	0x3f832000	1.0244141
32	0x3f7e8000	0.9941406
33	0x3e3fe000	0.18737793
34	0x3f830000	1.0234375
35	0xbe10c000	-0.14135742
36	0xbf40a000	-0.7524414
37	0xc0150000	-2.328125
38	0xbf882000	-1.0634766
39	0xbe008000	-0.12548828
40	0x3e7a0000	0.24414062
41	0x3e0d0000	0.13769531
42	0x3f59e000	0.8510742
43	0x3e9e2000	0.3088379
44	0x3cf72000	0.030166626
45	0xbea1e000	-0.3161621
46	0x3e272000	0.16320801
47	0x3e640000	0.22265625
48	0xbe986000	-0.29760742
49	0xc014a000	-2.3222656
50	0xbe2b0000	-0.16699219
51	0xbf192000	-0.59814453
52	0xbea72000	-0.32641602
53	0xbeed6000	-0.46362305
54	0xbd18c000	-0.03729248
55	0x3fa9c000	1.3261719
56	0x3fb2a000	1.3955078
57	0xbee46000	-0.44604492
58	0x3e5aa000	0.21350098
59	0x3f4d8000	0.8027344
60	0x3dabe000	0.08392334
61	0xbda38000	-0.079833984
62	0xbd5e2000	-0.054229736
63	0x3f14a000	0.5805664
64	0xbe9d2000	-0.30688477
65	0xbee30000	-0.44335938
66	0x3f032000	0.51220703
67	0xbf5fa000	-0.87353516
68	0xbfc90000	-1.5703125
69	0x3ea74000	0.32666016
70	0x3d722000	0.05911255
71	0xbeefa000	-0.46801758
72	0xbedde000	-0.4333496
73	0xbf96c000	-1.1777344
74	0xbefe0000	-0.49609375
75	0xbec02000	-0.37524414
76	0xc0126000	-2.2871094
77	0xbdc42000	-0.09576416
78	0xbee62000	-0.4494629
79	0xbe2c0000	-0.16796875
80	0xbd952000	-0.07281494
81	0xbf446000	-0.76708984
82	0x3ea8a000	0.3293457
83	0xbede8000	-0.4345703
84	0xbfc90000	-1.5703125
85	0x3f8ee000	1.1162109
86	0x3fd14000	1.6347656
87	0xbf45e000	-0.7729492
88	0xbf5a0000	-0.8515625
89	0x3e166000	0.14685059
90	0xbf620000	-0.8828125
91	0xbf6e4000	-0.93066406
92	0x3d742000	0.05960083
93	0xbf80a000	-1.0048828
94	0xbf80e000	-1.0068359
95	0xbf1f6000	-0.6225586
96	0xbed0c000	-0.40771484
97	0xbe3b2000	-0.18273926
98	0xbf504000	-0.81347656
99	0x3fa14000	1.2597656
100	0x3f352000	0.70751953
101	0x3d972000	0.073791504
102	0x3ebc0000	0.3671875
103	0x3f42e000	0.76123047
104	0x3e9d8000	0.3076172
105	0x3ee0c000	0.43896484
106	0x3ee46000	0.44604492
107	0x3e8fc000	0.28076172
108	0x3f204000	0.62597656
109	0x3f4f0000	0.80859375
110	0x3f2c2000	0.6723633
111	0xbc8a0000	-0.016845703
112	0xc00e2000	-2.2207031
113	0x3e68c000	0.22729492
114	0xbf78e000	-0.97216797
115	0xbecf6000	-0.4050293
116	0x3d802000	0.062561035
117	0x3f14c000	0.5810547
118	0x3f4a4000	0.79003906
119	0x3f880000	1.0625
120	0x3f244000	0.64160156
121	0x3e9ca000	0.3059082
122	0xbe62e000	-0.22155762
123	0x3e196000	0.14978027
124	0xbfd7c000	-1.6855469
125	0xbf0ee000	-0.55810547
126	0xbf476000	-0.7788086
127	0xbf61c000	-0.88183594
128	0xbfb96000	-1.4482422
129	0xbe012000	-0.12609863
130	0xbec9c000	-0.39404297
131	0xbf460000	-0.7734375
132	0xbdff8000	-0.12475586
133	0x3e474000	0.19458008
134	0x3eb2c000	0.3491211
135	0x3cc16000	0.023605347
136	0x3f6a4000	0.91503906
137	0xbdddc000	-0.10827637
138	0xbf1b2000	-0.60595703
139	0x3fb14000	1.3847656
140	0xbe7b0000	-0.24511719
141	0xbf800000	-1.0
142	0xbfb36000	-1.4013672
143	0xbedc0000	-0.4296875
144	0x3f86a000	1.0517578
145	0x3f8b8000	1.0898438
146	0x3f79a000	0.97509766
147	0x3f752000	0.95751953
148	0x3eeb2000	0.45922852
149	0x3ea76000	0.3269043
150	0x3ee32000	0.44360352
151	0x3dbd0000	0.092285156
152	0xbd9c6000	-0.07635498
153	0x3faf6000	1.3701172
154	0x3f808000	1.0039062
155	0x3e68c000	0.22729492
156	0x3f690000	0.91015625
157	0x3f6ac000	0.9169922
158	0xbeb56000	-0.35424805
159	0xbfbb6000	-1.4638672
160	0xbf68c000	-0.9091797
161	0x3ea9a000	0.33129883
162	0xbc638000	-0.013885498
163	0xbe84e000	-0.25952148
164	0xbeaf6000	-0.3425293
165	0xbdfac000	-0.12243652
166	0xbe6a2000	-0.2286377
167	0xbf44a000	-0.7680664
168	0x3f6e8000	0.9316406
169	0x401ca000	2.4472656
170	0xbf056000	-0.5209961
171	0xbf06c000	-0.5263672
172	0xbfa34000	-1.2753906
173	0xbe186000	-0.14880371
174	0x3e9e6000	0.30932617
175	0xbffbe000	-1.9677734
176	0xbe638000	-0.22216797
177	0x3ec72000	0.38891602
178	0x3ef72000	0.48266602
179	0x3f2e4000	0.68066406
180	0x3f314000	0.6923828
181	0xbd1c8000	-0.038208008
182	0xbf4f6000	-0.8100586
183	0x3d242000	0.04006958
184	0xbfefe000	-1.8740234
185	0xbf910000	-1.1328125
186	0x3dc7a000	0.097473145
187	0x3e9e4000	0.30908203
188	0x3f0f4000	0.5595703
189	0xbef88000	-0.48535156
190	0xbf244000	-0.64160156
191	0x3e1e4000	0.15454102
192	0xbf42a000	-0.7602539
193	0xbfeec000	-1.8652344
194	0xbe90a000	-0.2824707
195	0xbe7fa000	-0.24963379
196	0xbec2a000	-0.38012695
197	0xbdd3c000	-0.103393555
198	0x3fb6a000	1.4267578
199	0x3faea000	1.3642578
200	0x3f35a000	0.70947266
201	0x3f796000	0.9741211
202	0xbc966000	-0.018356323
203	0x3f17a000	0.59228516
204	0x3ef6e000	0.48217773
205	0x3e874000	0.26416016
206	0x3e646000	0.22302246
207	0x3f45c000	0.77246094
208	0x3f986000	1.1904297
209	0xbe7b4000	-0.24536133
210	0x3e416000	0.18884277
211	0xbf336000	-0.7006836
212	0xbfa18000	-1.2617188
213	0x3ea46000	0.32104492
214	0x3d090000	0.033447266
215	0xbf1b6000	-0.6069336
216	0xbf08a000	-0.5336914
217	0x3e476000	0.19470215
218	0xbee96000	-0.45581055
219	0x3f4ba000	0.79541016
220	0x3f95a000	1.1689453
221	0x3e966000	0.29370117
222	0x3f42c000	0.7607422
223	0x3cee2000	0.029067993
224	0xbebba000	-0.36645508
225	0xbea10000	-0.31445312
226	0x3e4aa000	0.19787598
227	0x3fb6a000	1.4267578
228	0xbe9d2000	-0.30688477
229	0x3f02a000	0.5102539
230	0x3fc56000	1.5419922
231	0x3f03c000	0.51464844
232	0xbca8c000	-0.020599365
233	0xbd816000	-0.06317139
234	0xbe084000	-0.13305664
235	0x3f7d2000	0.98876953
236	0x3fc82000	1.5634766
237	0xbf060000	-0.5234375
238	0x3f50a000	0.8149414
239	0x3fa18000	1.2617188
240	0xbe158000	-0.1459961
241	0xbec86000	-0.39135742
242	0x3f064000	0.52441406
243	0xbfa00000	-1.25
244	0xbfcb0000	-1.5859375
245	0x3d6dc000	0.058044434
246	0xbf9b2000	-1.2119141
247	0xbea4c000	-0.32177734
248	0x3e470000	0.19433594
249	0xbedaa000	-0.42700195
250	0x3d8aa000	0.06768799
251	0x3ed7c000	0.42138672
252	0x3fbfc000	1.4980469
253	0x3ecb2000	0.39672852
254	0xbf522000	-0.8208008
255	0x3fb38000	1.4023438

const_fold_opt__485 f4 [42, 1, 3, 3]
0	0xbfafa000	-1.3720703
1	0xbf88c000	-1.0683594
2	0xbe77c000	-0.24194336
3	0xbf2f4000	-0.6845703
4	0xbf278000	-0.6542969
5	0xbd98e000	-0.074645996
6	0x3d944000	0.072387695
7	0x3e1a2000	0.1505127
8	0x3d434000	0.047668457
9	0x3f5d8000	0.8652344
10	0x3f8b4000	1.0878906
11	0x3f8fc000	1.1230469
12	0x3f838000	1.0273438
13	0x3fef8000	1.8710938
14	0x3fa7e000	1.3115234
15	0x3f48e000	0.78466797
16	0x3fa7a000	1.3095703
17	0x3f3e0000	0.7421875
18	0x3fad6000	1.3544922
19	0x3fc76000	1.5576172
20	0x3f282000	0.6567383
21	0x3f6a0000	0.9140625
22	0x3fa10000	1.2578125
23	0x3f7f0000	0.99609375
24	0xbc85c000	-0.016326904
25	0x3ec02000	0.37524414
26	0x3eff4000	0.49853516
27	0x3ed4e000	0.41577148
28	0x3e4d8000	0.2006836
29	0xbd442000	-0.04788208
30	0x3f622000	0.8833008
31	0x3f81e000	1.0146484
32	0x3e9bc000	0.30419922
33	0x3f2b2000	0.66845703
34	0x3f222000	0.6333008
35	0x3e798000	0.24365234
36	0xbfc24000	-1.5175781
37	0xbff12000	-1.8837891
38	0xbf618000	-0.8808594
39	0xbfd90000	-1.6953125
40	0xbfe24000	-1.7675781
41	0xbf2a0000	-0.6640625
42	0xbf1a4000	-0.60253906
43	0xbee78000	-0.45214844
44	0xbe5fe000	-0.21862793
45	0x3db96000	0.09051514
46	0x3ef06000	0.46948242
47	0x3f11a000	0.56884766
48	0x3f0e0000	0.5546875
49	0x3f81e000	1.0146484
50	0x3f6ce000	0.92529297
51	0x3f434000	0.7626953
52	0x3faac000	1.3339844
53	0x3f65a000	0.89697266
54	0xbeb62000	-0.3557129
55	0xbf2fc000	-0.68652344
56	0xbc37a000	-0.011207581
57	0xbea1c000	-0.31591797
58	0x3f2b4000	0.6689453
59	0x3f8be000	1.0927734
60	0x3f2e2000	0.6801758
61	0x3fbda000	1.4814453
62	0x3f756000	0.9584961
63	0x3eaa2000	0.3322754
64	0x3fc76000	1.5576172
65	0x3fd94000	1.6972656
66	0x3f98a000	1.1923828
67	0x4031a000	2.7753906
68	0x4022e000	2.5449219
69	0x3f81c000	1.0136719
70	0x3ff38000	1.9023438
71	0x3fb3e000	1.4052734
72	0xbcf4e000	-0.029891968
73	0x3ebd6000	0.36987305
74	0x3efe4000	0.49658203
75	0x3ed68000	0.4189453
76	0x3f9a8000	1.2070312
77	0x3f6b6000	0.9194336
78	0x3f41c000	0.75683594
79	0x3f8dc000	1.1074219
80	0x3f390000	0.72265625
81	0x3fa62000	1.2978516
82	0x3fa82000	1.3134766
83	0x3f354000	0.7080078
84	0x3fd1e000	1.6396484
85	0x400a8000	2.1640625
86	0x3f254000	0.6455078
87	0x3ee6e000	0.45092773
88	0x3fa68000	1.3007812
89	0x3eeec000	0.4663086
90	0xbf084000	-0.53222656
91	0xbf0e8000	-0.5566406
92	0xbf03e000	-0.5151367
93	0xbf904000	-1.1269531
94	0xbfb7a000	-1.4345703
95	0xbf172000	-0.59033203
96	0xbf9c0000	-1.21875
97	0xbf7c4000	-0.98535156
98	0xbe3d2000	-0.18469238
99	0x3e932000	0.28735352
100	0x3f8a6000	1.0810547
101	0x3f08a000	0.5336914
102	0x3f53e000	0.8276367
103	0x3fb28000	1.3945312
104	0x3f618000	0.8808594
105	0x3f55e000	0.8354492
106	0x3f75a000	0.95947266
107	0x3eb0c000	0.34521484
108	0xbd890000	-0.06689453
109	0x3f206000	0.62646484
110	0x3f5e0000	0.8671875
111	0x3f876000	1.0576172
112	0x4000e000	2.0136719
113	0x3fd9a000	1.7001953
114	0x3f924000	1.1425781
115	0x3fcd0000	1.6015625
116	0x3f632000	0.88720703
117	0xbf996000	-1.1982422
118	0xbf98c000	-1.1933594
119	0xbe2e6000	-0.17028809
120	0xbfa7a000	-1.3095703
121	0xbfa04000	-1.2519531
122	0xbea00000	-0.3125
123	0xbf09c000	-0.53808594
124	0xbf10a000	-0.5649414
125	0xbda9a000	-0.08282471
126	0x3f6ee000	0.93310547
127	0x3fe10000	1.7578125
128	0x3f85a000	1.0439453
129	0x3f918000	1.1367188
130	0x3ff84000	1.9394531
131	0x3fadc000	1.3574219
132	0x3f290000	0.66015625
133	0x3fa1e000	1.2646484
134	0x3f782000	0.9692383
135	0x3f846000	1.0341797
136	0x3f7a4000	0.97753906
137	0x3eb36000	0.3503418
138	0x3fa2c000	1.2714844
139	0x3fe08000	1.7539062
140	0x3ec64000	0.38720703
141	0x3f22a000	0.6352539
142	0x3fbf2000	1.4931641
143	0x3f246000	0.64208984
144	0x3f1ec000	0.6201172
145	0x3ff30000	1.8984375
146	0x3f826000	1.0185547
147	0x3fa10000	1.2578125
148	0x3fdf6000	1.7451172
149	0x3f8fc000	1.1230469
150	0x3f170000	0.58984375
151	0x3f5f0000	0.87109375
152	0x3f120000	0.5703125
153	0xbfe96000	-1.8232422
154	0xbfe42000	-1.7822266
155	0xbf20e000	-0.62841797
156	0xbfe2a000	-1.7705078
157	0xc005c000	-2.0898438
158	0xbeaac000	-0.3334961
159	0xbefba000	-0.49145508
160	0xbf864000	-1.0488281
161	0x3f536000	0.8256836
162	0x3f3a4000	0.72753906
163	0x3f700000	0.9375
164	0x3f5fc000	0.87402344
165	0x3ed00000	0.40625
166	0xbedcc000	-0.43115234
167	0xbf6f8000	-0.9355469
168	0xbe966000	-0.29370117
169	0xbf8fa000	-1.1220703
170	0xbfbb4000	-1.4628906
171	0xbe14a000	-0.1451416
172	0xbf124000	-0.57128906
173	0xbf4b4000	-0.7939453
174	0xbf62a000	-0.8852539
175	0xbfd32000	-1.6494141
176	0xbf904000	-1.1269531
177	0xbf822000	-1.0166016
178	0xbfa0e000	-1.2568359
179	0xbf13a000	-0.57666016
180	0x3fa56000	1.2919922
181	0x40026000	2.0371094
182	0x3f8aa000	1.0830078
183	0x3ed26000	0.41088867
184	0x3f6a8000	0.9160156
185	0x3f998000	1.1992188
186	0x3dce6000	0.10076904
187	0x3eab2000	0.33422852
188	0x3ef22000	0.4729004
189	0x3f67c000	0.90527344
190	0x3fa1c000	1.2636719
191	0x3f33e000	0.7026367
192	0x3f952000	1.1650391
193	0x3fda6000	1.7060547
194	0x3f6d4000	0.9267578
195	0x3f038000	0.5136719
196	0x3f65e000	0.8979492
197	0x3f206000	0.62646484
198	0x3eea6000	0.45776367
199	0x3f370000	0.71484375
200	0x3f518000	0.8183594
201	0x3e804000	0.25048828
202	0x3f940000	1.15625
203	0x3fa64000	1.2988281
204	0x3f74c000	0.9560547
205	0x3f87e000	1.0615234
206	0x3f040000	0.515625
207	0x3dd62000	0.10455322
208	0x3f95c000	1.1699219
209	0x3f9dc000	1.2324219
210	0x3e8a8000	0.2705078
211	0x3f3da000	0.74072266
212	0x3f304000	0.68847656
213	0x3c75e000	0.015007019
214	0x3d7f6000	0.062347412
215	0x3dfe8000	0.12426758
216	0x3f628000	0.8847656
217	0x3facc000	1.3496094
218	0x3f324000	0.69628906
219	0x3fcb0000	1.5859375
220	0x401dc000	2.4648438
221	0x3fb86000	1.4404297
222	0x3f8be000	1.0927734
223	0x3fcfc000	1.6230469
224	0x3f89c000	1.0761719
225	0x3f800000	1.0
226	0x3f8c0000	1.09375
227	0x3edda000	0.43286133
228	0x3ff24000	1.8925781
229	0x40176000	2.3652344
230	0x3fca6000	1.5810547
231	0x3f8b0000	1.0859375
232	0x3fe94000	1.8222656
233	0x3fcfa000	1.6220703
234	0x3f8ec000	1.1152344
235	0x3f2b6000	0.6694336
236	0x3d668000	0.056274414
237	0x3f21e000	0.6323242
238	0x3faa8000	1.3320312
239	0x3f780000	0.96875
240	0x3e2de000	0.1697998
241	0x3f5cc000	0.8623047
242	0x3f302000	0.6879883
243	0x3dd26000	0.10272217
244	0xbdd2a000	-0.10284424
245	0xbe0cc000	-0.13745117
246	0x3ee3a000	0.44458008
247	0x3f9f6000	1.2451172
248	0x3f7ec000	0.9951172
249	0x3f5d2000	0.86376953
250	0x3fd5c000	1.6699219
251	0x3fac0000	1.34375
252	0xbffc4000	-1.9707031
253	0xbeb14000	-0.3461914
254	0x3f5a2000	0.8520508
255	0xbf850000	-1.0390625

const_fold_opt__484 f4 [24, 1, 3, 3]
0	0xbf412000	-0.75439453
1	0xbe572000	-0.21008301
2	0xbe302000	-0.17199707
3	0x3e90c000	0.28271484
4	0x408d8000	4.421875
5	0x3d39e000	0.04537964
6	0x3e34a000	0.1763916
7	0x3f800000	1.0
8	0x3f14e000	0.58154297
9	0xbee94000	-0.4555664
10	0x3ec70000	0.38867188
11	0x3f36e000	0.71435547
12	0x3f5d2000	0.86376953
13	0xbeff0000	-0.49804688
14	0x3ff4e000	1.9130859
15	0x3f352000	0.70751953
16	0x3d3dc000	0.046325684
17	0x3ed32000	0.41235352
18	0x3e910000	0.28320312
19	0xbe4d0000	-0.20019531
20	0x3e8f6000	0.2800293
21	0xbf2ee000	-0.68310547
22	0xc0172000	-2.3613281
23	0x3f04e000	0.51904297
24	0x3ef3e000	0.47631836
25	0x3e198000	0.14990234
26	0x3ea60000	0.32421875
27	0x3ea8e000	0.32983398
28	0xbf8ee000	-1.1162109
29	0xbfe48000	-1.7851562
30	0x3fb7a000	1.4345703
31	0xbf51a000	-0.81884766
32	0xc00e2000	-2.2207031
33	0xbed8c000	-0.42333984
34	0x3fa10000	1.2578125
35	0xbe936000	-0.2878418
36	0xbf284000	-0.65722656
37	0xbf826000	-1.0185547
38	0xbde28000	-0.1105957
39	0x3ef68000	0.4814453
40	0x3f9f8000	1.2460938
41	0xbef2a000	-0.47387695
42	0xbec36000	-0.3815918
43	0x3fcea000	1.6142578
44	0xbef80000	-0.484375
45	0x3f82e000	1.0224609
46	0x3ff78000	1.9335938
47	0xbdb8e000	-0.090270996
48	0x3ef54000	0.4790039
49	0xbe39a000	-0.18127441
50	0xbeb18000	-0.3466797
51	0xbcc40000	-0.023925781
52	0x3e32e000	0.17468262
53	0x3b858000	0.0040740967
54	0xbf1fa000	-0.62353516
55	0x3ee28000	0.4423828
56	0x3fae8000	1.3632812
57	0xbfad0000	-1.3515625
58	0x3f082000	0.5317383
59	0x3faa6000	1.3310547
60	0xbf0a6000	-0.54052734
61	0xbe88a000	-0.2668457
62	0x3f884000	1.0644531
63	0x3ea94000	0.3305664
64	0x3fbc2000	1.4697266
65	0x3f5cc000	0.8623047
66	0x3f2fc000	0.68652344
67	0x3fdf8000	1.7460938
68	0x3f542000	0.8286133
69	0xbd1b2000	-0.037872314
70	0x3ee56000	0.44799805
71	0x3ebc8000	0.36816406
72	0xbeaf8000	-0.34277344
73	0xbf29e000	-0.6635742
74	0x3f0dc000	0.55371094
75	0x3e08a000	0.13342285
76	0xbff48000	-1.9101562
77	0xbd8f2000	-0.069885254
78	0x3f0e4000	0.55566406
79	0xbfa66000	-1.2998047
80	0xbf126000	-0.57177734
81	0x3e00e000	0.12585449
82	0x3f90c000	1.1308594
83	0x3f344000	0.70410156
84	0x3f53c000	0.82714844
85	0x3fb36000	1.4013672
86	0x3e36a000	0.17834473
87	0xbedfa000	-0.43676758
88	0x3cfc8000	0.030822754
89	0xbe590000	-0.21191406
90	0x3f564000	0.83691406
91	0x3f32c000	0.6982422
92	0x3e968000	0.2939453
93	0x3ec22000	0.3791504
94	0x3e212000	0.15734863
95	0x3ed02000	0.40649414
96	0xbe646000	-0.22302246
97	0x3fbda000	1.4814453
98	0x3d8ba000	0.06817627
99	0xbec52000	-0.38500977
100	0xbf4be000	-0.7963867
101	0x3e42c000	0.19018555
102	0x3f81c000	1.0136719
103	0xbf400000	-0.75
104	0xbee2c000	-0.4428711
105	0x3e96a000	0.29418945
106	0x3f780000	0.96875
107	0x3f16a000	0.5883789
108	0xbef2e000	-0.47436523
109	0xbf9ac000	-1.2089844
110	0xb9b18000	-0.00033855438
111	0xbd51e000	-0.051239014
112	0x3fa82000	1.3134766
113	0x3e6ae000	0.22937012
114	0xbdbca000	-0.09210205
115	0x3f1a8000	0.6035156
116	0x3e580000	0.2109375
117	0x3f9d8000	1.2304688
118	0x3f506000	0.81396484
119	0x3ddfa000	0.109191895
120	0x3f8e2000	1.1103516
121	0x3ffe6000	1.9873047
122	0xbeed6000	-0.46362305
123	0xbed98000	-0.4248047
124	0x3f060000	0.5234375
125	0xbd532000	-0.05154419
126	0x3c804000	0.015655518
127	0x3f7f4000	0.9970703
128	0xba802000	-0.0009775162
129	0xbe2a4000	-0.16625977
130	0xc059e000	-3.4042969
131	0x3eb12000	0.34594727
132	0xbebb8000	-0.36621094
133	0x3f8ec000	1.1152344
134	0x3ef78000	0.48339844
135	0x3f190000	0.59765625
136	0x3f458000	0.7714844
137	0x3c848000	0.016174316
138	0x3face000	1.3505859
139	0x3fdc2000	1.7197266
140	0xbe4ee000	-0.20202637
141	0x3d03e000	0.032196045
142	0xbe3b2000	-0.18273926
143	0xbf840000	-1.03125
144	0xbeb80000	-0.359375
145	0xbfa4c000	-1.2871094
146	0xbf060000	-0.5234375
147	0x3f38a000	0.7211914
148	0xbf2ae000	-0.66748047
149	0xbf31a000	-0.69384766
150	0x3f016000	0.5053711
151	0x3fd30000	1.6484375
152	0x3f602000	0.8754883
153	0x3e152000	0.14562988
154	0x3f506000	0.81396484
155	0xbe8ac000	-0.2709961
156	0x3f37a000	0.71728516
157	0xbc8a6000	-0.01689148
158	0xbf9c4000	-1.2207031
159	0xbe818000	-0.2529297
160	0xbffcc000	-1.9746094
161	0xbfd96000	-1.6982422
162	0x3ef42000	0.47680664
163	0x3e1a6000	0.15075684
164	0xbe324000	-0.17407227
165	0x3e878000	0.26464844
166	0xbf7a8000	-0.9785156
167	0xbee26000	-0.44213867
168	0xbea92000	-0.33032227
169	0xbf536000	-0.8256836
170	0xbee1c000	-0.44091797
171	0xbe5a2000	-0.2130127
172	0x3f814000	1.0097656
173	0xbf09a000	-0.53759766
174	0xbf0bc000	-0.54589844
175	0x3fac4000	1.3457031
176	0x3f18a000	0.5961914
177	0x3e3f6000	0.18688965
178	0xbdf42000	-0.11920166
179	0x3dd40000	0.103515625
180	0x3e8cc000	0.27490234
181	0xbf24e000	-0.64404297
182	0xbf1ca000	-0.6118164
183	0x3c844000	0.016143799
184	0x3fed0000	1.8515625
185	0xbf4d6000	-0.8022461
186	0x3f5e4000	0.86816406
187	0x3f672000	0.90283203
188	0xbe828000	-0.2548828
189	0x3fb3e000	1.4052734
190	0x3ffb8000	1.9648438
191	0x3d7d8000	0.06188965
192	0x3fe3e000	1.7802734
193	0x40390000	2.890625
194	0x3f798000	0.9746094
195	0xbd472000	-0.048614502
196	0x3e91e000	0.2849121
197	0xbd9fc000	-0.07800293
198	0x3cb28000	0.02178955
199	0xbf67e000	-0.9057617
200	0xbf3ec000	-0.7451172
201	0x3fb40000	1.40625
202	0x3ff2c000	1.8964844
203	0x3edc2000	0.42993164
204	0xbe6f2000	-0.23352051
205	0xbf1b4000	-0.6064453
206	0x3e266000	0.16247559
207	0xbfbe4000	-1.4863281
208	0x3faf6000	1.3701172
209	0xbeaf2000	-0.34204102
210	0xbf9e2000	-1.2353516
211	0x3fc74000	1.5566406
212	0xbc614000	-0.013748169
213	0xbdf50000	-0.119628906
214	0xbd316000	-0.043304443
215	0xbe146000	-0.14489746

const_fold_opt__483 f4 [80, 1, 3, 3]
0	0xbf180000	-0.59375
1	0xbfaec000	-1.3652344
2	0xbe274000	-0.16333008
3	0xbf5b0000	-0.85546875
4	0xbf7ee000	-0.99560547
5	0xbfa9c000	-1.3261719
6	0xbf09c000	-0.53808594
7	0xbfa36000	-1.2763672
8	0xbf264000	-0.64941406
9	0x3fd04000	1.6269531
10	0x3fe4a000	1.7861328
11	0x3fc1e000	1.5146484
12	0x3feac000	1.8339844
13	0x4029a000	2.6503906
14	0x3fff0000	1.9921875
15	0x3fb56000	1.4169922
16	0x3ff6e000	1.9287109
17	0x3fbec000	1.4902344
18	0xbf52e000	-0.82373047
19	0xbf1d2000	-0.61376953
20	0xbe8fc000	-0.28076172
21	0xbc492000	-0.012275696
22	0xbf6be000	-0.9213867
23	0xbec1e000	-0.3786621
24	0x3d8d0000	0.068847656
25	0x3e942000	0.28930664
26	0x3d824000	0.06359863
27	0xbee0a000	-0.4387207
28	0xbdad0000	-0.084472656
29	0xbe9b6000	-0.3034668
30	0xbf406000	-0.75146484
31	0x3e50a000	0.20373535
32	0xbed38000	-0.41308594
33	0xbe584000	-0.21118164
34	0xbeed8000	-0.4638672
35	0xbe85c000	-0.26123047
36	0xbf802000	-1.0009766
37	0xbffee000	-1.9912109
38	0x3eda6000	0.42651367
39	0xbfea8000	-1.8320312
40	0xbf99c000	-1.2011719
41	0x3e920000	0.28515625
42	0x3f842000	1.0322266
43	0x3fa60000	1.296875
44	0x3ff4c000	1.9121094
45	0xbf9b4000	-1.2128906
46	0xbf946000	-1.1591797
47	0xbfb00000	-1.375
48	0xbf9d2000	-1.2275391
49	0xbe99a000	-0.30004883
50	0xbfb7e000	-1.4365234
51	0xbf84a000	-1.0361328
52	0xbf90c000	-1.1308594
53	0xbf58a000	-0.8461914
54	0x3d26c000	0.04071045
55	0x3f00e000	0.50341797
56	0xbd740000	-0.059570312
57	0xbe3bc000	-0.18334961
58	0x3ffda000	1.9814453
59	0x3e8c4000	0.27392578
60	0xbeb5c000	-0.35498047
61	0xbddb6000	-0.1071167
62	0x3e2ba000	0.16760254
63	0xbf16c000	-0.5888672
64	0xbf6f4000	-0.9345703
65	0xbf97a000	-1.1845703
66	0xbf16e000	-0.58935547
67	0x3f640000	0.890625
68	0xbfb22000	-1.3916016
69	0xbf4ae000	-0.79248047
70	0xbfab6000	-1.3388672
71	0xbfff6000	-1.9951172
72	0xbdb88000	-0.09008789
73	0xbe1f4000	-0.15551758
74	0xbdf26000	-0.11834717
75	0xbede0000	-0.43359375
76	0xbed70000	-0.41992188
77	0xbedfc000	-0.43701172
78	0xbf39a000	-0.72509766
79	0xbf6fe000	-0.9370117
80	0xbf37a000	-0.71728516
81	0xbe280000	-0.1640625
82	0xbea1a000	-0.31567383
83	0xbef00000	-0.46875
84	0xbd9cc000	-0.076538086
85	0x40598000	3.3984375
86	0xbeac4000	-0.33642578
87	0xbd94a000	-0.0725708
88	0xbdc2c000	-0.09509277
89	0xbe744000	-0.23852539
90	0x3f126000	0.57177734
91	0x3f102000	0.5629883
92	0xbf51a000	-0.81884766
93	0x3fbb0000	1.4609375
94	0x3f460000	0.7734375
95	0xbf56c000	-0.8388672
96	0x3f966000	1.1748047
97	0xbe9fa000	-0.31176758
98	0xbec46000	-0.38354492
99	0xbe936000	-0.2878418
100	0xbe82a000	-0.25512695
101	0xbe3ce000	-0.18444824
102	0xbe9e0000	-0.30859375
103	0x403aa000	2.9160156
104	0xbe7f4000	-0.24926758
105	0xbf1a0000	-0.6015625
106	0xbe9ac000	-0.3022461
107	0xbe6a4000	-0.22875977
108	0x3fc4c000	1.5371094
109	0x3f07a000	0.52978516
110	0x3f846000	1.0341797
111	0x3e944000	0.28955078
112	0xbfe06000	-1.7529297
113	0x3d810000	0.06298828
114	0x3f790000	0.97265625
115	0xbc8a2000	-0.016860962
116	0x3f2a4000	0.66503906
117	0xbaab2000	-0.0013055801
118	0x3e7c0000	0.24609375
119	0xbdd2e000	-0.10296631
120	0xbcb46000	-0.022018433
121	0x3fb10000	1.3828125
122	0xbf2d8000	-0.6777344
123	0xbcb78000	-0.022399902
124	0xbf3fa000	-0.74853516
125	0xbef1c000	-0.47216797
126	0xc0080000	-2.125
127	0xc03ac000	-2.9179688
128	0xbfa7e000	-1.3115234
129	0xc0778000	-3.8671875
130	0xbf3ee000	-0.74560547
131	0xbfb88000	-1.4414062
132	0xc0160000	-2.34375
133	0xbffae000	-1.9599609
134	0xbf416000	-0.7553711
135	0xbeb04000	-0.34423828
136	0x3f520000	0.8203125
137	0x3e2a0000	0.16601562
138	0xbf436000	-0.7631836
139	0xc01c2000	-2.4394531
140	0x3f094000	0.5361328
141	0xbe9b2000	-0.30297852
142	0xbf124000	-0.57128906
143	0x3dae2000	0.08502197
144	0x3ecea000	0.40356445
145	0x3fd72000	1.6806641
146	0x3f3a6000	0.72802734
147	0x3f8f0000	1.1171875
148	0xbcdb2000	-0.026748657
149	0x3fbde000	1.4833984
150	0x3f304000	0.68847656
151	0x3f7ca000	0.9868164
152	0x3f208000	0.6269531
153	0xbe66a000	-0.22521973
154	0x3e80a000	0.2512207
155	0x3e842000	0.25805664
156	0xbd4d8000	-0.0501709
157	0x3f9cc000	1.2246094
158	0x3f142000	0.5786133
159	0x3ddbc000	0.107299805
160	0x3e290000	0.16503906
161	0x3e14c000	0.14526367
162	0x3f7fe000	0.9995117
163	0x3fc9a000	1.5751953
164	0x3f5ac000	0.8544922
165	0x3fbd4000	1.4785156
166	0x3f93e000	1.1552734
167	0x3f390000	0.72265625
168	0x3f600000	0.875
169	0x3f230000	0.63671875
170	0x3ea0c000	0.31396484
171	0xbeb02000	-0.34399414
172	0xbe402000	-0.18762207
173	0x3e276000	0.16345215
174	0xbf018000	-0.5058594
175	0xbf2bc000	-0.67089844
176	0x3ecec000	0.4038086
177	0xbedde000	-0.4333496
178	0xbf076000	-0.5288086
179	0x3e924000	0.28564453
180	0x3ea9e000	0.3317871
181	0x3e2c6000	0.16833496
182	0x3defc000	0.11706543
183	0xbd1be000	-0.03805542
184	0xbfbda000	-1.4814453
185	0x3e640000	0.22265625
186	0xbe7c2000	-0.24621582
187	0x3da40000	0.080078125
188	0x3eb86000	0.36010742
189	0x3db16000	0.08660889
190	0x3d93c000	0.072143555
191	0xbe33c000	-0.17553711
192	0x3d99a000	0.07501221
193	0x4041a000	3.0253906
194	0xbe27a000	-0.16369629
195	0x3c890000	0.016723633
196	0x3cde6000	0.027145386
197	0x3dfcc000	0.123413086
198	0xbf30e000	-0.69091797
199	0x3f8a2000	1.0791016
200	0x3f81a000	1.0126953
201	0xbd880000	-0.06640625
202	0x40026000	2.0371094
203	0x3ff4a000	1.9111328
204	0xbea72000	-0.32641602
205	0x3eea8000	0.4580078
206	0x3f672000	0.90283203
207	0xbe372000	-0.17883301
208	0xbe2ba000	-0.16760254
209	0xbe106000	-0.14099121
210	0xbe55c000	-0.20874023
211	0x40160000	2.34375
212	0xbde08000	-0.10961914
213	0xbe936000	-0.2878418
214	0xbe1a0000	-0.15039062
215	0xbe2c6000	-0.16833496
216	0xbf08a000	-0.5336914
217	0xbff5e000	-1.9208984
218	0xc048c000	-3.1367188
219	0xbe8fc000	-0.28076172
220	0xbfa02000	-1.2509766
221	0xc004e000	-2.0761719
222	0xbf158000	-0.5839844
223	0xbf878000	-1.0585938
224	0xbfb64000	-1.4238281
225	0xbf5ce000	-0.86279297
226	0xbf45c000	-0.77246094
227	0xbf13c000	-0.57714844
228	0xbf0da000	-0.55322266
229	0xbf142000	-0.5786133
230	0xbf0a6000	-0.54052734
231	0xbef5a000	-0.47973633
232	0xbf52c000	-0.8232422
233	0xbf1a2000	-0.6020508
234	0xbe002000	-0.12512207
235	0xbf9ea000	-1.2392578
236	0xbf292000	-0.66064453
237	0xbf6f6000	-0.9350586
238	0xbfde8000	-1.7382812
239	0xbf0e0000	-0.5546875
240	0xbf50c000	-0.8154297
241	0xbfaf8000	-1.3710938
242	0xbf22c000	-0.6357422
243	0x3c086000	0.008323669
244	0xbf67c000	-0.90527344
245	0xbfab4000	-1.3378906
246	0x3c1d4000	0.009597778
247	0xbf466000	-0.77490234
248	0xbfcc8000	-1.5976562
249	0x3b258000	0.0025253296
250	0xbea18000	-0.3154297
251	0xbec6e000	-0.38842773
252	0x3f88c000	1.0683594
253	0x3fa72000	1.3056641
254	0x3f954000	1.1660156
255	0x3f91e000	1.1396484

const_fold_opt__482 f4 [42, 36, 1, 1]
0	0xbe1cc000	-0.15307617
1	0xbd8a8000	-0.06762695
2	0x3d064000	0.03277588
3	0x3b850000	0.004058838
4	0x3d80a000	0.062805176
5	0xbd56a000	-0.05239868
6	0x3d7ec000	0.062194824
7	0xbcda0000	-0.026611328
8	0x3d810000	0.06298828
9	0x3d070000	0.032958984
10	0xbc5d6000	-0.013511658
11	0x3e04c000	0.12963867
12	0xba30e000	-0.0006747246
13	0xbd8ca000	-0.06866455
14	0xbd9e6000	-0.07733154
15	0xbc360000	-0.011108398
16	0x3ad34000	0.0016117096
17	0x3d2fe000	0.042938232
18	0xbc652000	-0.01398468
19	0x3c4be000	0.0124435425
20	0xbde42000	-0.11138916
21	0x3ddae000	0.10687256
22	0x3cd54000	0.026031494
23	0xbb416000	-0.0029506683
24	0xbc9aa000	-0.018875122
25	0xbc72e000	-0.014823914
26	0xbd1e4000	-0.038635254
27	0xbc8ea000	-0.017410278
28	0xbd420000	-0.04736328
29	0x3d890000	0.06689453
30	0xbc812000	-0.01576233
31	0x3cd6e000	0.026229858
32	0x3c9c0000	0.019042969
33	0xbd966000	-0.07342529
34	0x3d14a000	0.0362854
35	0x3e13c000	0.14428711
36	0xbc706000	-0.014671326
37	0x3e8e0000	0.27734375
38	0xbd538000	-0.051635742
39	0x3de3e000	0.11126709
40	0x3d2f4000	0.042785645
41	0xbca66000	-0.020309448
42	0xbd6d2000	-0.057891846
43	0x3cb32000	0.021865845
44	0xbddfa000	-0.109191895
45	0xbe438000	-0.19091797
46	0x3ce80000	0.028320312
47	0xbda22000	-0.0791626
48	0x3da26000	0.07928467
49	0x3da62000	0.08111572
50	0x3ca02000	0.019546509
51	0xbdde2000	-0.10845947
52	0x3d876000	0.066101074
53	0x3d882000	0.066467285
54	0xbd2c2000	-0.042022705
55	0xbcfc6000	-0.030807495
56	0xbda6c000	-0.0814209
57	0xbbba8000	-0.0056915283
58	0xbc67a000	-0.014137268
59	0x3de12000	0.10992432
60	0xbbfde000	-0.00774765
61	0x3d9d2000	0.07672119
62	0xbdbbe000	-0.09173584
63	0x3d662000	0.05618286
64	0x3d108000	0.03527832
65	0xbbf08000	-0.0073394775
66	0x3dab2000	0.08355713
67	0x3e262000	0.16223145
68	0x3c58a000	0.013221741
69	0xbe24c000	-0.16088867
70	0xbdfbe000	-0.12298584
71	0xbd2a0000	-0.041503906
72	0xbdd7e000	-0.105407715
73	0x3c166000	0.009178162
74	0xbe0be000	-0.13659668
75	0xbd22e000	-0.039764404
76	0xbc948000	-0.018127441
77	0x3d05e000	0.032684326
78	0x3dc06000	0.093933105
79	0xbdc6e000	-0.09710693
80	0x3db2e000	0.08734131
81	0xbd21a000	-0.03945923
82	0xbceae000	-0.028671265
83	0x3c580000	0.013183594
84	0x3c9aa000	0.018875122
85	0x3d7e4000	0.062072754
86	0xbb96e000	-0.0046043396
87	0xbd840000	-0.064453125
88	0xbdaca000	-0.08428955
89	0x3d16a000	0.03677368
90	0x3d976000	0.073913574
91	0x3ba44000	0.005012512
92	0xbdbce000	-0.09222412
93	0xbde10000	-0.10986328
94	0xbdf7e000	-0.121032715
95	0x3e016000	0.12634277
96	0x3d100000	0.03515625
97	0xbd194000	-0.03741455
98	0x3dc52000	0.09625244
99	0xbd7fe000	-0.062469482
100	0x3d142000	0.03616333
101	0xbe030000	-0.12792969
102	0xbcc4c000	-0.024017334
103	0x3e124000	0.14282227
104	0x3ca6c000	0.020355225
105	0xbdd10000	-0.10205078
106	0xbc46e000	-0.012138367
107	0x3dc2c000	0.09509277
108	0xbd880000	-0.06640625
109	0xbcd40000	-0.025878906
110	0xbd2b0000	-0.041748047
111	0x3cd2c000	0.025726318
112	0x3cf96000	0.030441284
113	0xbd314000	-0.043273926
114	0xbc986000	-0.018600464
115	0x3cab0000	0.020874023
116	0x3c828000	0.015930176
117	0x3cabc000	0.020965576
118	0x3d412000	0.04714966
119	0x3d210000	0.03930664
120	0x3d568000	0.052368164
121	0x3e096000	0.13415527
122	0x3d50c000	0.050964355
123	0xbdb9a000	-0.09063721
124	0xbdd58000	-0.10424805
125	0xbb440000	-0.0029907227
126	0x3ca0e000	0.019638062
127	0x3d034000	0.032043457
128	0xbc6fe000	-0.014640808
129	0x3d090000	0.033447266
130	0x3c81a000	0.015823364
131	0x3d588000	0.052856445
132	0xbda30000	-0.079589844
133	0x3a82e000	0.000998497
134	0x3c248000	0.010040283
135	0x3cbae000	0.02281189
136	0xbd61e000	-0.055145264
137	0x3c312000	0.010810852
138	0x3c422000	0.01184845
139	0x3cfa2000	0.030532837
140	0x3b788000	0.003791809
141	0xbdafe000	-0.085876465
142	0x3d1e0000	0.03857422
143	0x3c68c000	0.014205933
144	0x3e834000	0.25634766
145	0x3d8ee000	0.06976318
146	0xbd3f4000	-0.046691895
147	0x3cf0e000	0.029403687
148	0x3c56a000	0.01309967
149	0x3dc3c000	0.095581055
150	0x3e4a6000	0.19763184
151	0xbc984000	-0.018585205
152	0x3de9e000	0.11419678
153	0xbd8b6000	-0.0680542
154	0xbe07c000	-0.13256836
155	0xbe366000	-0.17810059
156	0xbbb8c000	-0.0056381226
157	0x3b18a000	0.0023288727
158	0xbca04000	-0.019561768
159	0xbcadc000	-0.021209717
160	0x3d1d2000	0.038360596
161	0x3d854000	0.06506348
162	0xbe402000	-0.18762207
163	0x3e032000	0.12805176
164	0xbccdc000	-0.025115967
165	0x3d3fe000	0.046844482
166	0xbcd16000	-0.025558472
167	0x3daec000	0.08532715
168	0x3e214000	0.1574707
169	0xbd25e000	-0.040496826
170	0x3d7d0000	0.061767578
171	0xbe08e000	-0.13366699
172	0xbb8dc000	-0.0043258667
173	0x3e08e000	0.13366699
174	0xbe316000	-0.17321777
175	0x3d33c000	0.043884277
176	0xbdbfe000	-0.093688965
177	0x3d7d2000	0.061798096
178	0x3d5f8000	0.05456543
179	0x3cb9a000	0.022659302
180	0xbd2ca000	-0.042144775
181	0xbd980000	-0.07421875
182	0xbc4b2000	-0.012397766
183	0x3ce12000	0.02748108
184	0x3d120000	0.03564453
185	0x3e884000	0.26611328
186	0x3d56e000	0.052459717
187	0xbd974000	-0.07385254
188	0xbdfd6000	-0.12371826
189	0xbdf02000	-0.117248535
190	0xbca50000	-0.020141602
191	0x3df62000	0.12017822
192	0x3d906000	0.070495605
193	0xbe288000	-0.16455078
194	0xbda80000	-0.08203125
195	0xbc5ca000	-0.013465881
196	0xbcf36000	-0.029708862
197	0x3d692000	0.056915283
198	0x3dd14000	0.10217285
199	0x3cfe2000	0.031021118
200	0x3d292000	0.041290283
201	0xbd4e8000	-0.05041504
202	0x3dc5a000	0.09649658
203	0xbd338000	-0.043823242
204	0xbbc40000	-0.0059814453
205	0x3d118000	0.03552246
206	0x3d2c2000	0.042022705
207	0xbcf9c000	-0.03048706
208	0xbc088000	-0.008331299
209	0xbaf58000	-0.0018730164
210	0x3d16c000	0.0368042
211	0x3db1e000	0.08685303
212	0x3c86e000	0.016464233
213	0xbd2b4000	-0.041809082
214	0xbd91a000	-0.07110596
215	0xbd148000	-0.036254883
216	0xbd3fe000	-0.046844482
217	0x3d19c000	0.03753662
218	0xbdd7a000	-0.105285645
219	0xbe014000	-0.1262207
220	0xbd18c000	-0.03729248
221	0x3cbc8000	0.023010254
222	0x3e0ca000	0.1373291
223	0xbd2fe000	-0.042938232
224	0xbdd1c000	-0.10241699
225	0x3c998000	0.018737793
226	0xbcad4000	-0.021148682
227	0x3ccdc000	0.025115967
228	0x3d184000	0.03717041
229	0x3d6ac000	0.05731201
230	0xbd332000	-0.04373169
231	0x3d6a2000	0.057159424
232	0x3cc4a000	0.024002075
233	0x3cd88000	0.026428223
234	0x3c37a000	0.011207581
235	0x3dbce000	0.09222412
236	0x3d872000	0.065979004
237	0xbd048000	-0.032348633
238	0x3dc14000	0.09436035
239	0x3d0d4000	0.034484863
240	0xbbcb8000	-0.006210327
241	0xbe30a000	-0.17248535
242	0x3d778000	0.060424805
243	0x3dbe2000	0.09283447
244	0xbcf6e000	-0.030136108
245	0x3bd9a000	0.006641388
246	0xbd84c000	-0.064819336
247	0xbc1f4000	-0.009719849
248	0xbe060000	-0.13085938
249	0x3d378000	0.044799805
250	0xbde82000	-0.113342285
251	0x3da38000	0.079833984
252	0x3dcd2000	0.10015869
253	0x3cbf2000	0.023330688
254	0xbdc72000	-0.097229004
255	0xbd366000	-0.044525146

const_fold_opt__479 f4 [96, 1, 3, 3]
0	0xbe6de000	-0.2322998
1	0x407ae000	3.9199219
2	0x408ac000	4.3359375
3	0xc0290000	-2.640625
4	0x3f950000	1.1640625
5	0x4025c000	2.5898438
6	0xc0940000	-4.625
7	0xbfda2000	-1.7041016
8	0xbd5f2000	-0.054473877
9	0xbe9e6000	-0.30932617
10	0xbec40000	-0.3828125
11	0x3edd8000	0.4326172
12	0xbf60a000	-0.8774414
13	0xbee04000	-0.43798828
14	0xbf4ee000	-0.80810547
15	0xbfa4e000	-1.2880859
16	0x3d18c000	0.03729248
17	0x3e5ba000	0.21447754
18	0x40100000	2.25
19	0x401dc000	2.4648438
20	0x3f8fa000	1.1220703
21	0x3f66c000	0.9013672
22	0x401ee000	2.4824219
23	0x3f680000	0.90625
24	0xbf40a000	-0.7524414
25	0x3f358000	0.7089844
26	0x3f2c2000	0.6723633
27	0xbfe7a000	-1.8095703
28	0x3ddd0000	0.107910156
29	0xbf2b8000	-0.6699219
30	0xbf3de000	-0.7416992
31	0x400fc000	2.2460938
32	0xbe9c0000	-0.3046875
33	0xbf460000	-0.7734375
34	0xbe230000	-0.15917969
35	0xbe25a000	-0.16174316
36	0xc0704000	-3.7539062
37	0x3ef26000	0.47338867
38	0x3e978000	0.29589844
39	0xbf61e000	-0.8823242
40	0x4029c000	2.6523438
41	0x3e71c000	0.23608398
42	0x3f49e000	0.7885742
43	0x3f604000	0.87597656
44	0x3e0d8000	0.1381836
45	0x3e974000	0.29541016
46	0x3ea4a000	0.3215332
47	0x3e924000	0.28564453
48	0x3ea60000	0.32421875
49	0xbf9c2000	-1.2197266
50	0x3eb22000	0.3479004
51	0x3e8fc000	0.28076172
52	0x3ec06000	0.37573242
53	0x3e8fc000	0.28076172
54	0xbf81e000	-1.0146484
55	0xbfbe0000	-1.484375
56	0xbf04e000	-0.51904297
57	0xbed02000	-0.40649414
58	0x3fb7e000	1.4365234
59	0xbf966000	-1.1748047
60	0xbf808000	-1.0039062
61	0x3f00e000	0.50341797
62	0xbe6e6000	-0.23278809
63	0x3ea94000	0.3305664
64	0x3f7c2000	0.9848633
65	0x3f7a4000	0.97753906
66	0x3dab2000	0.08355713
67	0x3ed30000	0.41210938
68	0x3fd56000	1.6669922
69	0x3e9d8000	0.3076172
70	0x4007e000	2.1230469
71	0x3f2f8000	0.6855469
72	0x3db10000	0.08642578
73	0xbf728000	-0.9472656
74	0xbd762000	-0.06008911
75	0xbe61a000	-0.22033691
76	0xbf1c8000	-0.6113281
77	0x3c0f4000	0.008743286
78	0xbf132000	-0.57470703
79	0x3eb42000	0.35180664
80	0x3ed3c000	0.41357422
81	0x3e3ba000	0.18322754
82	0x3f334000	0.7001953
83	0xba356000	-0.0006918907
84	0x3ee40000	0.4453125
85	0x3fafe000	1.3740234
86	0x3ebc6000	0.36791992
87	0xbb316000	-0.0027065277
88	0x3f534000	0.8251953
89	0xbe386000	-0.18005371
90	0xc0320000	-2.78125
91	0xbf3cc000	-0.7373047
92	0xbf3e8000	-0.7441406
93	0xbf790000	-0.97265625
94	0x3f5f8000	0.8730469
95	0xbf25a000	-0.64697266
96	0xbe910000	-0.28320312
97	0xbec74000	-0.38916016
98	0x3f0fc000	0.56152344
99	0x3e83c000	0.25732422
100	0x3dee6000	0.11639404
101	0x3d83c000	0.064331055
102	0x3eeea000	0.46606445
103	0xbe982000	-0.29711914
104	0x3e7c0000	0.24609375
105	0xbc948000	-0.018127441
106	0x3f178000	0.5917969
107	0x3e55e000	0.2088623
108	0x3fa2a000	1.2705078
109	0x3fb22000	1.3916016
110	0x3f0aa000	0.5415039
111	0x3fdc6000	1.7216797
112	0xc00b0000	-2.171875
113	0x3f67c000	0.90527344
114	0x3f90c000	1.1308594
115	0x3fd40000	1.65625
116	0x3fd62000	1.6728516
117	0x3d84e000	0.06488037
118	0x3e2f6000	0.17126465
119	0x3e16e000	0.14733887
120	0xbf378000	-0.7167969
121	0x3dd08000	0.10180664
122	0xbd8ba000	-0.06817627
123	0xbf746000	-0.95458984
124	0x3e0de000	0.1385498
125	0xbf894000	-1.0722656
126	0xbeac0000	-0.3359375
127	0xbf2f4000	-0.6845703
128	0x3de20000	0.11035156
129	0xbf3e6000	-0.74365234
130	0x3fa52000	1.2900391
131	0xbf7ae000	-0.97998047
132	0xbeb9e000	-0.3630371
133	0xbf822000	-1.0166016
134	0x3e204000	0.15649414
135	0x3f154000	0.5830078
136	0x400bc000	2.1835938
137	0xbe3e2000	-0.18566895
138	0x3efec000	0.4975586
139	0x3fb30000	1.3984375
140	0xbefa4000	-0.48876953
141	0x3e4d6000	0.20056152
142	0xbf8de000	-1.1083984
143	0xbd5b2000	-0.053497314
144	0xbf886000	-1.0654297
145	0xc02ba000	-2.6816406
146	0xbff4a000	-1.9111328
147	0xc051c000	-3.2773438
148	0x4084e000	4.1523438
149	0xc0276000	-2.6152344
150	0xbfed2000	-1.8525391
151	0xc05e2000	-3.4707031
152	0xbff10000	-1.8828125
153	0x3edcc000	0.43115234
154	0xbf168000	-0.5878906
155	0xbf052000	-0.52001953
156	0x3e08c000	0.13354492
157	0xbf320000	-0.6953125
158	0xbeb28000	-0.3486328
159	0xbe3b8000	-0.18310547
160	0xbe0a4000	-0.13500977
161	0x3d880000	0.06640625
162	0xbfbee000	-1.4912109
163	0xbfbfc000	-1.4980469
164	0xbfcb0000	-1.5859375
165	0xbf942000	-1.1572266
166	0xbf6b8000	-0.9199219
167	0xbf87a000	-1.0595703
168	0xbebfc000	-0.37451172
169	0xbf21c000	-0.63183594
170	0xbf7f6000	-0.9975586
171	0x3e3d8000	0.1850586
172	0x3f85a000	1.0439453
173	0x3f47a000	0.77978516
174	0x3f5e4000	0.86816406
175	0xc006c000	-2.1054688
176	0x3f7d8000	0.9902344
177	0x3f1b4000	0.6064453
178	0x3ed16000	0.40893555
179	0x3ea54000	0.3227539
180	0x3e3de000	0.1854248
181	0xc03c2000	-2.9394531
182	0xbf14a000	-0.5805664
183	0xbfee6000	-1.8623047
184	0xc041c000	-3.0273438
185	0x3fab8000	1.3398438
186	0xbf1a2000	-0.6020508
187	0x3ee6a000	0.45043945
188	0xbf60a000	-0.8774414
189	0xbf060000	-0.5234375
190	0xbf5cc000	-0.8623047
191	0x3fb1a000	1.3876953
192	0xbea0e000	-0.31420898
193	0xc04b8000	-3.1796875
194	0x3f60c000	0.8779297
195	0x3f940000	1.15625
196	0x3f666000	0.89990234
197	0x3edf4000	0.43603516
198	0x3cc8a000	0.024490356
199	0x3fc0a000	1.5048828
200	0x3f652000	0.89501953
201	0x3fcda000	1.6064453
202	0xbf9f2000	-1.2431641
203	0xbf57c000	-0.84277344
204	0x3f98e000	1.1943359
205	0x3db30000	0.087402344
206	0xbf970000	-1.1796875
207	0x3d286000	0.041107178
208	0x3e9cc000	0.30615234
209	0x3fa52000	1.2900391
210	0xbe710000	-0.23535156
211	0xbf5f8000	-0.8730469
212	0x3f018000	0.5058594
213	0x3c918000	0.01776123
214	0x3d1b2000	0.037872314
215	0x3e764000	0.24047852
216	0xc0310000	-2.765625
217	0xc015a000	-2.3378906
218	0xbf924000	-1.1425781
219	0xbfcc8000	-1.5976562
220	0x405e6000	3.4746094
221	0xbf3f4000	-0.7470703
222	0xbf7dc000	-0.99121094
223	0xbf32a000	-0.6977539
224	0x3e90e000	0.28295898
225	0x3fec8000	1.8476562
226	0x3ef78000	0.48339844
227	0xbe794000	-0.2434082
228	0x40294000	2.6445312
229	0xc03a6000	-2.9121094
230	0xbefec000	-0.4975586
231	0x403ce000	2.9511719
232	0x3f9e6000	1.2373047
233	0x3ed3a000	0.41333008
234	0xbf594000	-0.8486328
235	0xbff18000	-1.8867188
236	0xbbcd2000	-0.006259918
237	0xbf572000	-0.84033203
238	0x40058000	2.0859375
239	0x3f676000	0.9038086
240	0xbeb16000	-0.34643555
241	0x3f29a000	0.66259766
242	0xbe938000	-0.28808594
243	0xbe96a000	-0.29418945
244	0xbeee8000	-0.4658203
245	0xbe3d0000	-0.18457031
246	0xbe982000	-0.29711914
247	0x3f618000	0.8808594
248	0xbf318000	-0.6933594
249	0xbece8000	-0.4033203
250	0xbef82000	-0.48461914
251	0xbe9f0000	-0.31054688
252	0x3fac4000	1.3457031
253	0xbf412000	-0.75439453
254	0xbfb10000	-1.3828125
255	0x3fea2000	1.8291016

const_fold_opt__478 f4 [6, 96, 1, 1]
0	0xbe0ee000	-0.13952637
1	0xc0bea000	-5.9570312
2	0xbe932000	-0.28735352
3	0xc19d8000	-19.6875
4	0x3f468000	0.7753906
5	0x3d528000	0.0513916
6	0xbfce4000	-1.6113281
7	0x3da5c000	0.08093262
8	0x3d15a000	0.03652954
9	0x3ebce000	0.36889648
10	0xc1a40000	-20.5
11	0x3da58000	0.08081055
12	0x3ab32000	0.0013666153
13	0xbe818000	-0.2529297
14	0x3ea00000	0.3125
15	0xbe57e000	-0.21081543
16	0xbf168000	-0.5878906
17	0xbe69a000	-0.22814941
18	0x3fc0e000	1.5068359
19	0xbf08e000	-0.53466797
20	0xc0e6e000	-7.2148438
21	0x3e080000	0.1328125
22	0xbdc1c000	-0.09460449
23	0xbe4fc000	-0.20288086
24	0xbdb7a000	-0.089660645
25	0xbeeee000	-0.46655273
26	0xbf902000	-1.1259766
27	0x3da66000	0.08123779
28	0xc05b8000	-3.4296875
29	0x3f968000	1.1757812
30	0xbdb72000	-0.089416504
31	0x3e26c000	0.1628418
32	0xbf15a000	-0.58447266
33	0xbdfec000	-0.12438965
34	0x3e674000	0.22583008
35	0xbf2a0000	-0.6640625
36	0xc0ac2000	-5.3789062
37	0xc02ac000	-2.6679688
38	0xbf822000	-1.0166016
39	0xc1246000	-10.2734375
40	0x3f5f2000	0.87158203
41	0xbe5c8000	-0.21533203
42	0xbe0f2000	-0.13977051
43	0xc1076000	-8.4609375
44	0xbe120000	-0.14257812
45	0xbecfe000	-0.40600586
46	0xbe694000	-0.2277832
47	0xbe3ba000	-0.18322754
48	0xc034a000	-2.8222656
49	0xc132a000	-11.1640625
50	0xc0b2a000	-5.5820312
51	0xc0ad2000	-5.4101562
52	0xbcd0e000	-0.025497437
53	0xbeaf2000	-0.34204102
54	0xbf354000	-0.7080078
55	0x3b788000	0.003791809
56	0x3d438000	0.047729492
57	0xbf014000	-0.5048828
58	0xc0a62000	-5.1914062
59	0x3ecd2000	0.40063477
60	0xbe07e000	-0.13269043
61	0xc156e000	-13.4296875
62	0xbd7c4000	-0.061584473
63	0xbe27a000	-0.16369629
64	0xc0f68000	-7.703125
65	0x3ee5e000	0.4489746
66	0xbef70000	-0.48242188
67	0xbdc48000	-0.095947266
68	0x3ee5e000	0.4489746
69	0x3f18e000	0.59716797
70	0xbd830000	-0.063964844
71	0xbdc36000	-0.09539795
72	0xbedc0000	-0.4296875
73	0xbe484000	-0.19555664
74	0xbd940000	-0.072265625
75	0x3dd74000	0.10510254
76	0xc0db4000	-6.8515625
77	0x3da2c000	0.07946777
78	0xc06b2000	-3.6738281
79	0xc18c4000	-17.53125
80	0xbfb90000	-1.4453125
81	0xbe7f8000	-0.24951172
82	0x3f4ce000	0.80029297
83	0x3e396000	0.18103027
84	0xbf826000	-1.0185547
85	0x3f20a000	0.6274414
86	0xbfada000	-1.3564453
87	0xbf906000	-1.1279297
88	0x3b5be000	0.0033550262
89	0xbdbce000	-0.09222412
90	0xbebe0000	-0.37109375
91	0xc19ea000	-19.828125
92	0xbf7dc000	-0.99121094
93	0xbefe6000	-0.49682617
94	0xbc05e000	-0.008171082
95	0x3d908000	0.07055664
96	0xc077c000	-3.8710938
97	0xc1bce000	-23.609375
98	0x3e3bc000	0.18334961
99	0xc17d6000	-15.8359375
100	0x3dbc8000	0.092041016
101	0x3c874000	0.01651001
102	0xbf896000	-1.0732422
103	0x3c9a0000	0.018798828
104	0x3e404000	0.18774414
105	0x3daea000	0.08526611
106	0xc1bb4000	-23.40625
107	0x3da70000	0.08154297
108	0xbf440000	-0.765625
109	0xbf07a000	-0.52978516
110	0x3f2e8000	0.6816406
111	0xbdc7a000	-0.097473145
112	0xbf734000	-0.9501953
113	0xbe91a000	-0.28442383
114	0x3d804000	0.06262207
115	0xbf2a8000	-0.6660156
116	0xc149e000	-12.6171875
117	0x3d394000	0.04522705
118	0xbd726000	-0.059173584
119	0xbe5dc000	-0.21655273
120	0xbf0a2000	-0.5395508
121	0xbf07e000	-0.5307617
122	0xbf6c8000	-0.9238281
123	0x3e22e000	0.15905762
124	0xc1966000	-18.796875
125	0xbd552000	-0.05203247
126	0x3c3b6000	0.011436462
127	0x3eb06000	0.34448242
128	0xbe05c000	-0.13061523
129	0xbd446000	-0.047943115
130	0x3e2de000	0.1697998
131	0xbf112000	-0.56689453
132	0xc08a2000	-4.3164062
133	0xc0d96000	-6.7929688
134	0xc053e000	-3.3105469
135	0xc12ac000	-10.671875
136	0x3f01e000	0.5073242
137	0xbea84000	-0.32861328
138	0xbe53e000	-0.20690918
139	0xc1690000	-14.5625
140	0xbdf62000	-0.12017822
141	0xbf748000	-0.9550781
142	0x3eafa000	0.34301758
143	0xbf9f4000	-1.2441406
144	0xc0664000	-3.5976562
145	0xc13ec000	-11.921875
146	0xc08e6000	-4.4492188
147	0xbfebc000	-1.8417969
148	0xbeb88000	-0.36035156
149	0xbe734000	-0.23754883
150	0xbf3a4000	-0.72753906
151	0xbd8f2000	-0.069885254
152	0x3bc5e000	0.006038666
153	0xc05e0000	-3.46875
154	0xc0c54000	-6.1640625
155	0xbdb30000	-0.087402344
156	0xbe486000	-0.19567871
157	0xc1450000	-12.3125
158	0x3d6c2000	0.057647705
159	0xbeacc000	-0.33740234
160	0xc13ac000	-11.671875
161	0x3e42e000	0.19030762
162	0xbf180000	-0.59375
163	0x3da02000	0.078186035
164	0x3ef5e000	0.4802246
165	0x3ee14000	0.4399414
166	0xbd6d6000	-0.05795288
167	0xbdafa000	-0.085754395
168	0xbe24a000	-0.1607666
169	0xbe306000	-0.17224121
170	0xbd200000	-0.0390625
171	0x3e218000	0.15771484
172	0xc146c000	-12.421875
173	0x3dc22000	0.0947876
174	0xc07bc000	-3.9335938
175	0xc134e000	-11.3046875
176	0xbf208000	-0.6269531
177	0xbb8e8000	-0.004348755
178	0xbdd40000	-0.103515625
179	0x3df26000	0.11834717
180	0xbda6c000	-0.0814209
181	0x3d306000	0.043060303
182	0xbf4f6000	-0.8100586
183	0xc017e000	-2.3730469
184	0x3d27a000	0.040924072
185	0x3ddae000	0.10687256
186	0xbe678000	-0.22607422
187	0xc17c6000	-15.7734375
188	0x3d23e000	0.040008545
189	0x3e51c000	0.20483398
190	0x3d83c000	0.064331055
191	0x3dc5c000	0.09655762
192	0xc1b86000	-23.046875
193	0xc1cc4000	-25.53125
194	0xbf654000	-0.8955078
195	0xc144a000	-12.2890625
196	0xbea4a000	-0.3215332
197	0xbce68000	-0.028137207
198	0xbf912000	-1.1337891
199	0xbe32a000	-0.17443848
200	0x3e3bc000	0.18334961
201	0xbe5d0000	-0.21582031
202	0xc199c000	-19.21875
203	0x3d070000	0.032958984
204	0xbff2a000	-1.8955078
205	0xbf5aa000	-0.8540039
206	0x3f15e000	0.5854492
207	0xbda66000	-0.08123779
208	0xbf9a4000	-1.2050781
209	0xbed6c000	-0.4194336
210	0xbfaa8000	-1.3320312
211	0xbfa5c000	-1.2949219
212	0xc19bc000	-19.46875
213	0xbed66000	-0.41870117
214	0x3b78a000	0.0037937164
215	0xbdf9e000	-0.12200928
216	0xc0030000	-2.046875
217	0xbd852000	-0.06500244
218	0xbef1e000	-0.4724121
219	0x3df1a000	0.11798096
220	0xc1a20000	-20.25
221	0xbfb4c000	-1.4121094
222	0x3d982000	0.074279785
223	0xbe44a000	-0.1920166
224	0x3e492000	0.19641113
225	0x3c666000	0.014060974
226	0x3d710000	0.05883789
227	0xbf154000	-0.5830078
228	0xc0e66000	-7.1992188
229	0xc134c000	-11.296875
230	0xc11e0000	-9.875
231	0xc14f4000	-12.953125
232	0xbc7dc000	-0.015487671
233	0xbf1e0000	-0.6171875
234	0xbed90000	-0.42382812
235	0xc1a18000	-20.1875
236	0xbd80a000	-0.062805176
237	0xc00e0000	-2.21875
238	0x3ec54000	0.3852539
239	0xbf998000	-1.1992188
240	0xc088e000	-4.2773438
241	0xc12b4000	-10.703125
242	0xc0aa2000	-5.3164062
243	0xbe962000	-0.2932129
244	0xbf52c000	-0.8232422
245	0xbe062000	-0.13098145
246	0xbf2d2000	-0.67626953
247	0xbeb88000	-0.36035156
248	0xbd56a000	-0.05239868
249	0xc0afc000	-5.4921875
250	0xc115e000	-9.3671875
251	0xbf182000	-0.5942383
252	0xbeb56000	-0.35424805
253	0xc1368000	-11.40625
254	0x3defe000	0.117126465
255	0xbf144000	-0.57910156
