fdlite/data/face_detection_back.onnx (onnx, 560949 bytes, 109 tensors)

const_fold_opt__886 f4 [48, 1, 3, 3]
0	0xbff66000	-1.9248047
1	0xc00ec000	-2.2304688
2	0xbf99e000	-1.2021484
3	0xbdc94000	-0.0982666
4	0xbf9b8000	-1.2148438
5	0xbf63c000	-0.88964844
6	0xbf8d6000	-1.1044922
7	0xbed2a000	-0.41137695
8	0xbe9d8000	-0.3076172
9	0x3fbe6000	1.4873047
10	0x3fbc8000	1.4726562
11	0x3f71a000	0.94384766
12	0x4006c000	2.1054688
13	0x4059e000	3.4042969
14	0x3f944000	1.1582031
15	0x3f9c6000	1.2216797
16	0x3ecc6000	0.39916992
17	0x3f274000	0.6533203
18	0x3eac0000	0.3359375
19	0xc0000000	-2.0
20	0xbf7ee000	-0.99560547
21	0xbebb2000	-0.36547852
22	0xbfc74000	-1.5566406
23	0xbf3a0000	-0.7265625
24	0x3fbd8000	1.4804688
25	0x40058000	2.0859375
26	0x3fb38000	1.4023438
27	0xbf6c4000	-0.92285156
28	0xbfa42000	-1.2822266
29	0xbf1a4000	-0.60253906
30	0xbf9b4000	-1.2128906
31	0xc0420000	-3.03125
32	0x3ea56000	0.32299805
33	0xbf4ea000	-0.8071289
34	0xbfa28000	-1.2695312
35	0xbf86c000	-1.0527344
36	0xbfa18000	-1.2617188
37	0xbeee2000	-0.4650879
38	0x3ea10000	0.31445312
39	0xbff9e000	-1.9521484
40	0xbfadc000	-1.3574219
41	0x3fa50000	1.2890625
42	0xbeffa000	-0.49926758
43	0xbffa6000	-1.9560547
44	0xbfa74000	-1.3066406
45	0x3e176000	0.14782715
46	0x3e9f6000	0.3112793
47	0x3f760000	0.9609375
48	0xc00f6000	-2.2402344
49	0x3fa80000	1.3125
50	0x3f72a000	0.9477539
51	0xbf836000	-1.0263672
52	0x3e95a000	0.29223633
53	0xbf918000	-1.1367188
54	0xbecdc000	-0.40185547
55	0xbe638000	-0.22216797
56	0x3f870000	1.0546875
57	0xbf22e000	-0.63623047
58	0x40074000	2.1132812
59	0x3ecf6000	0.4050293
60	0x3ed46000	0.41479492
61	0x3fdaa000	1.7080078
62	0x3fa66000	1.2998047
63	0xbf5f8000	-0.8730469
64	0xbe4b8000	-0.19873047
65	0x3f46c000	0.7763672
66	0x40132000	2.2988281
67	0x400b6000	2.1777344
68	0x3f55c000	0.83496094
69	0x3f796000	0.9741211
70	0x3f870000	1.0546875
71	0x3f106000	0.56396484
72	0x3fe62000	1.7978516
73	0x3e1cc000	0.15307617
74	0xbf5c6000	-0.86083984
75	0x3f96c000	1.1777344
76	0xbf720000	-0.9453125
77	0xbf978000	-1.1835938
78	0x4013c000	2.3085938
79	0x3fb28000	1.3945312
80	0xbf2aa000	-0.6665039
81	0x3ff0a000	1.8798828
82	0xbf6e4000	-0.93066406
83	0xbf92a000	-1.1455078
84	0x3f2c6000	0.67333984
85	0xbe1be000	-0.15222168
86	0xbf9a0000	-1.203125
87	0xbf054000	-0.5205078
88	0x3e038000	0.12841797
89	0xbedc6000	-0.43041992
90	0xbfb5c000	-1.4199219
91	0xbfe48000	-1.7851562
92	0xbf660000	-0.8984375
93	0xbfd32000	-1.6494141
94	0xbe882000	-0.26586914
95	0x3fa14000	1.2597656
96	0x3f63c000	0.88964844
97	0x400ba000	2.1816406
98	0x3fdc2000	1.7197266
99	0x3e2ba000	0.16760254
100	0x3f3ca000	0.7368164
101	0xbc5de000	-0.013542175
102	0x40062000	2.0957031
103	0x3fc32000	1.5244141
104	0xbf35e000	-0.7104492
105	0x3ee66000	0.44995117
106	0x3fb8e000	1.4443359
107	0x3eb3e000	0.35131836
108	0xbf0e0000	-0.5546875
109	0xc00c0000	-2.1875
110	0xbe900000	-0.28125
111	0x3eaba000	0.33520508
112	0x3f706000	0.93896484
113	0xbf9de000	-1.2333984
114	0xbdcba000	-0.09942627
115	0x4048c000	3.1367188
116	0x3dbe6000	0.09295654
117	0xc05bc000	-3.4335938
118	0x3ef54000	0.4790039
119	0x40122000	2.2832031
120	0xc00d0000	-2.203125
121	0xbf8f8000	-1.1210938
122	0x3f4c2000	0.7973633
123	0xbf2b2000	-0.66845703
124	0x3ea4c000	0.32177734
125	0xbe96a000	-0.29418945
126	0x3f3c8000	0.7363281
127	0x3e1c4000	0.15258789
128	0x3f7ce000	0.98779297
129	0xbde6a000	-0.11260986
130	0xc082e000	-4.0898438
131	0x3f8ca000	1.0986328
132	0x3e970000	0.29492188
133	0xbf346000	-0.70458984
134	0xbe5e8000	-0.21728516
135	0x3fd2c000	1.6464844
136	0x4068a000	3.6347656
137	0x3f3da000	0.74072266
138	0xbdd1c000	-0.10241699
139	0x3f760000	0.9609375
140	0x3f5da000	0.86572266
141	0xc0192000	-2.3925781
142	0xbfa78000	-1.3085938
143	0xbf702000	-0.9379883
144	0xbf79a000	-0.97509766
145	0xbea12000	-0.31469727
146	0x3eb48000	0.35253906
147	0xbe600000	-0.21875
148	0x3fc44000	1.5332031
149	0x3f69c000	0.91308594
150	0x3f5c4000	0.86035156
151	0x40502000	3.2519531
152	0x3f2a0000	0.6640625
153	0xbf6aa000	-0.9165039
154	0xc009c000	-2.1523438
155	0xbfbb2000	-1.4619141
156	0x3ef18000	0.4716797
157	0xbece2000	-0.4025879
158	0xbd81a000	-0.06329346
159	0x40206000	2.5058594
160	0x3fc90000	1.5703125
161	0x3f960000	1.171875
162	0x3dc26000	0.09490967
163	0xbf914000	-1.1347656
164	0xbf924000	-1.1425781
165	0xbf986000	-1.1904297
166	0xc0b84000	-5.7578125
167	0xbfc86000	-1.5654297
168	0xbe0e4000	-0.13891602
169	0xbe314000	-0.1730957
170	0xbd7e6000	-0.06210327
171	0xbfab2000	-1.3369141
172	0x3ee6a000	0.45043945
173	0xbf192000	-0.59814453
174	0xbf5ae000	-0.85498047
175	0xbf86a000	-1.0517578
176	0xbf892000	-1.0712891
177	0x3ea82000	0.32836914
178	0x3de52000	0.11187744
179	0x3f2e8000	0.6816406
180	0xbfd24000	-1.6425781
181	0xbeb50000	-0.35351562
182	0xbefce000	-0.49389648
183	0xbef76000	-0.4831543
184	0x3f24c000	0.6435547
185	0xc010c000	-2.2617188
186	0x3e1aa000	0.15100098
187	0xbfab4000	-1.3378906
188	0xc0202000	-2.5019531
189	0x400a2000	2.1582031
190	0x4034c000	2.8242188
191	0x3f548000	0.8300781
192	0xbf8d2000	-1.1025391
193	0x3fd68000	1.6757812
194	0x3fa1e000	1.2646484
195	0xbe0ac000	-0.13549805
196	0xbff44000	-1.9082031
197	0xbf24c000	-0.6435547
198	0xbd694000	-0.0569458
199	0x3fd16000	1.6357422
200	0x3f82c000	1.0214844
201	0x3ef92000	0.48657227
202	0x3fb32000	1.3994141
203	0x3fb80000	1.4375
204	0xbf3d2000	-0.73876953
205	0xbd7c0000	-0.061523438
206	0x3ed76000	0.4206543
207	0xbf958000	-1.1679688
208	0xbf0ac000	-0.5419922
209	0x3f8f6000	1.1201172
210	0x3eba6000	0.36401367
211	0x4008a000	2.1347656
212	0xbfda0000	-1.703125
213	0x3e894000	0.2680664
214	0xbfb88000	-1.4414062
215	0xbfc1c000	-1.5136719
216	0x3f8c8000	1.0976562
217	0x3ea56000	0.32299805
218	0xc0172000	-2.3613281
219	0xbeec4000	-0.46142578
220	0xbe4be000	-0.19909668
221	0xbf8f0000	-1.1171875
222	0x3fa18000	1.2617188
223	0x40584000	3.3789062
224	0x3f802000	1.0009766
225	0xbf2e8000	-0.6816406
226	0xc0a02000	-5.0039062
227	0xc04a4000	-3.1601562
228	0xbfc84000	-1.5644531
229	0x3f070000	0.52734375
230	0x401f2000	2.4863281
231	0x3ef80000	0.484375
232	0x3faec000	1.3652344
233	0x3e4fa000	0.20275879
234	0xc0494000	-3.1445312
235	0xc039e000	-2.9042969
236	0xc074a000	-3.8222656
237	0xc0070000	-2.109375
238	0x3f960000	1.171875
239	0xc0296000	-2.6464844
240	0x3f6ba000	0.92041016
241	0x3ffe2000	1.9853516
242	0xbfc9e000	-1.5771484
243	0xbd97a000	-0.074035645
244	0xbf25e000	-0.6479492
245	0xc0028000	-2.0390625
246	0x3fc0a000	1.5048828
247	0xc032e000	-2.7949219
248	0xc000c000	-2.0117188
249	0xbfeac000	-1.8339844
250	0xc0944000	-4.6328125
251	0xc0060000	-2.09375
252	0xc0084000	-2.1289062
253	0x3fb7c000	1.4355469
254	0x3fe24000	1.7675781
255	0xc0602000	-3.5019531

const_fold_opt__885 f4 [48, 48, 1, 1]
0	0xbe022000	-0.1270752
1	0x3c402000	0.011726379
2	0xbbb8c000	-0.0056381226
3	0x37490000	1.1980534e-05
4	0xbbcae000	-0.0061912537
5	0x3c150000	0.009094238
6	0x3c160000	0.009155273
7	0xbb88e000	-0.0041770935
8	0x3d0f8000	0.03503418
9	0x3c6f4000	0.014602661
10	0xbb4be000	-0.0031108856
11	0x3c842000	0.01612854
12	0x3c1a2000	0.009407043
13	0x3d058000	0.032592773
14	0xbb508000	-0.0031814575
15	0xbb7b0000	-0.003829956
16	0x3c11a000	0.008888245
17	0xbc868000	-0.016418457
18	0x3d036000	0.032073975
19	0x3cbc8000	0.023010254
20	0x3d5f0000	0.05444336
21	0xbce9c000	-0.028533936
22	0xbcc74000	-0.02432251
23	0xbcfac000	-0.03060913
24	0x3cd40000	0.025878906
25	0x3c964000	0.018341064
26	0xbc8ee000	-0.017440796
27	0xbd618000	-0.05505371
28	0xbd8ea000	-0.06964111
29	0xbb85a000	-0.0040779114
30	0x3c9ba000	0.018997192
31	0x3dfae000	0.12249756
32	0x3c0a4000	0.00843811
33	0xbda3e000	-0.08001709
34	0xbbbca000	-0.005756378
35	0x3c4c0000	0.012451172
36	0x3b392000	0.0028247833
37	0x3d28c000	0.04119873
38	0xba620000	-0.0008621216
39	0xbd44e000	-0.048065186
40	0xbd942000	-0.07232666
41	0xbd4d8000	-0.0501709
42	0xbcab8000	-0.020935059
43	0x3c170000	0.009216309
44	0x3bc5a000	0.0060310364
45	0x3d8f0000	0.06982422
46	0x3d084000	0.03326416
47	0x3c196000	0.009361267
48	0x3c752000	0.014961243
49	0xbdb96000	-0.09051514
50	0xbc61a000	-0.013771057
51	0xbd9d4000	-0.07678223
52	0xba892000	-0.0010461807
53	0x3ce8c000	0.028411865
54	0xbd82e000	-0.06390381
55	0x3cc0a000	0.023513794
56	0xbd10e000	-0.035369873
57	0x3d7dc000	0.061950684
58	0x3b6c0000	0.0036010742
59	0x3d68a000	0.056793213
60	0xbca5e000	-0.020248413
61	0xbd300000	-0.04296875
62	0xbc9c0000	-0.019042969
63	0xbc6f8000	-0.01461792
64	0xbb832000	-0.0040016174
65	0xbd31a000	-0.04336548
66	0x3d19e000	0.03756714
67	0x3bf62000	0.007511139
68	0x3cf72000	0.030166626
69	0x3d712000	0.05886841
70	0xbc6dc000	-0.014511108
71	0x3c3f8000	0.011688232
72	0xbd38c000	-0.04510498
73	0x3d584000	0.05279541
74	0x3cdc6000	0.026901245
75	0xbca16000	-0.019699097
76	0x3cd04000	0.025421143
77	0xbc11a000	-0.008888245
78	0x3c65c000	0.014022827
79	0x3d11a000	0.03555298
80	0x3cbd8000	0.023132324
81	0xbb818000	-0.0039520264
82	0x3c97e000	0.018539429
83	0x3d138000	0.036010742
84	0x3bfd0000	0.0077209473
85	0x3dba8000	0.09106445
86	0xbcb4e000	-0.022079468
87	0x3d16c000	0.0368042
88	0x3d040000	0.032226562
89	0x3d142000	0.03616333
90	0x3c84c000	0.016204834
91	0x3b160000	0.0022888184
92	0x3cf74000	0.030181885
93	0xbc9f6000	-0.019454956
94	0x3cec0000	0.028808594
95	0x3c3f0000	0.011657715
96	0xbc590000	-0.013244629
97	0xbcfe2000	-0.031021118
98	0xbce74000	-0.02822876
99	0x3c2fa000	0.010719299
100	0x3c31e000	0.010856628
101	0x39a9a000	0.000323534
102	0xbca2e000	-0.019882202
103	0x3bdcc000	0.0067367554
104	0x3d516000	0.051116943
105	0x3c902000	0.017593384
106	0x3d088000	0.033325195
107	0xbc610000	-0.01373291
108	0xbaac4000	-0.0013141632
109	0xbcb0c000	-0.021575928
110	0xbd4b4000	-0.049621582
111	0xbcb16000	-0.021652222
112	0x3cb1e000	0.021713257
113	0x3ba90000	0.0051574707
114	0xbcbb8000	-0.022888184
115	0x3cdaa000	0.026687622
116	0xbac3e000	-0.0014944077
117	0x3c328000	0.010894775
118	0xbbe50000	-0.0069885254
119	0xbbb92000	-0.0056495667
120	0x3c002000	0.007820129
121	0x3c196000	0.009361267
122	0xbce18000	-0.027526855
123	0xbd29c000	-0.04144287
124	0xbc028000	-0.007965088
125	0x3bb5e000	0.0055503845
126	0xbc178000	-0.009246826
127	0xbd090000	-0.033447266
128	0x3d4fc000	0.050720215
129	0xbde80000	-0.11328125
130	0xbca18000	-0.019714355
131	0x3d0c4000	0.034240723
132	0x3d180000	0.037109375
133	0x3c836000	0.016036987
134	0xbd20a000	-0.039215088
135	0xbc270000	-0.010192871
136	0xbd53e000	-0.051727295
137	0xbc840000	-0.016113281
138	0x3a020000	0.00049591064
139	0xbbdea000	-0.006793976
140	0x3c766000	0.015037537
141	0x3ba38000	0.004989624
142	0xbd52a000	-0.05142212
143	0xbc176000	-0.009239197
144	0xbab46000	-0.001376152
145	0x3c114000	0.008865356
146	0x3cf90000	0.030395508
147	0xbdbba000	-0.09161377
148	0x3c562000	0.013069153
149	0xbbfb0000	-0.007659912
150	0xbd066000	-0.032806396
151	0x3d166000	0.036712646
152	0x3c196000	0.009361267
153	0x3c14e000	0.009086609
154	0xbc376000	-0.011192322
155	0x3d4aa000	0.049468994
156	0x3bf4c000	0.0074691772
157	0xbcd8a000	-0.026443481
158	0x3cdc6000	0.026901245
159	0xbcb64000	-0.022247314
160	0xbce2e000	-0.027694702
161	0xbd01a000	-0.03164673
162	0xbbd74000	-0.0065689087
163	0xba720000	-0.00092315674
164	0xbbc48000	-0.005996704
165	0xbd666000	-0.056243896
166	0xbd2ca000	-0.042144775
167	0x3d546000	0.051849365
168	0x3d2de000	0.04244995
169	0x3d0ae000	0.03390503
170	0xbcd70000	-0.026245117
171	0xbc3f8000	-0.011688232
172	0xbd374000	-0.04473877
173	0xbd116000	-0.035491943
174	0x3c906000	0.017623901
175	0x3b148000	0.0022659302
176	0x3d2a6000	0.04159546
177	0xbb3f4000	-0.0029182434
178	0x3cc62000	0.02418518
179	0xbbc36000	-0.005962372
180	0xbb52e000	-0.0032176971
181	0x389fc000	7.6174736e-05
182	0x3b1bc000	0.0023765564
183	0x3ca72000	0.020401001
184	0x3d36c000	0.0446167
185	0xbd0b4000	-0.033996582
186	0x3b9a8000	0.004714966
187	0xbc4f2000	-0.012641907
188	0x3d1b6000	0.03793335
189	0xbc9c0000	-0.019042969
190	0xbbb72000	-0.0055885315
191	0x3d358000	0.044311523
192	0x3b908000	0.00440979
193	0xbb8ca000	-0.0042915344
194	0x3cbce000	0.02305603
195	0xbb2f4000	-0.0026741028
196	0xbdba0000	-0.09082031
197	0x3ba88000	0.005142212
198	0x3cea0000	0.028564453
199	0x3bc0a000	0.0058784485
200	0x3c2e8000	0.010650635
201	0xbc458000	-0.012054443
202	0x3c820000	0.01586914
203	0x3d05e000	0.032684326
204	0xbb07c000	-0.0020713806
205	0x3d52e000	0.051483154
206	0x3ce3c000	0.027801514
207	0xbba86000	-0.005138397
208	0x3c218000	0.009857178
209	0xbcd00000	-0.025390625
210	0x3cc80000	0.024414062
211	0x3bfe2000	0.0077552795
212	0xbcf7a000	-0.030227661
213	0x3bd1a000	0.0063972473
214	0xbcfba000	-0.030715942
215	0x3d03a000	0.03213501
216	0x3c378000	0.011199951
217	0x3c250000	0.010070801
218	0xbbd32000	-0.0064430237
219	0xbb2b0000	-0.002609253
220	0x3c6aa000	0.014320374
221	0xbc29c000	-0.010360718
222	0xbd234000	-0.039855957
223	0x3cb7c000	0.02243042
224	0x3cad8000	0.0211792
225	0xbbc36000	-0.005962372
226	0xbcc20000	-0.02368164
227	0x3d248000	0.040161133
228	0x3cece000	0.028915405
229	0x3ce32000	0.02772522
230	0xbc34c000	-0.0110321045
231	0x3d536000	0.051605225
232	0x3a09e000	0.0005259514
233	0xbb820000	-0.003967285
234	0xbb9f8000	-0.0048675537
235	0xbcfb0000	-0.030639648
236	0xbc49c000	-0.012313843
237	0xbc80e000	-0.015731812
238	0xbc17a000	-0.009254456
239	0xbd3e8000	-0.04650879
240	0xbce1c000	-0.027557373
241	0x3d4d8000	0.0501709
242	0xbca70000	-0.020385742
243	0x3d100000	0.03515625
244	0x3c518000	0.012786865
245	0x3d2c0000	0.041992188
246	0xbba2c000	-0.004966736
247	0x3d2e2000	0.042510986
248	0x3c9ca000	0.019119263
249	0x3c344000	0.011001587
250	0xbc152000	-0.009101868
251	0x3d1b8000	0.037963867
252	0xbd2ba000	-0.041900635
253	0xba70c000	-0.00091838837
254	0x3cd7c000	0.02633667
255	0x3c3b6000	0.011436462

const_fold_opt__884 f4 [48, 1, 3, 3]
0	0x3f56c000	0.8388672
1	0xbfb24000	-1.3925781
2	0xc000c000	-2.0117188
3	0x3fb34000	1.4003906
4	0x3f4ca000	0.7993164
5	0xbfad0000	-1.3515625
6	0xbe99e000	-0.3005371
7	0xbe028000	-0.1274414
8	0xbec9c000	-0.39404297
9	0xbea3c000	-0.31982422
10	0xbc922000	-0.017837524
11	0xbe3a8000	-0.1821289
12	0xbf39a000	-0.72509766
13	0xc01d2000	-2.4550781
14	0xbf790000	-0.97265625
15	0xbefde000	-0.4958496
16	0xbe9f6000	-0.3112793
17	0xbf872000	-1.0556641
18	0x3f268000	0.6503906
19	0x3f532000	0.82470703
20	0xbe0a0000	-0.13476562
21	0x3e34e000	0.17663574
22	0xc0b8c000	-5.7734375
23	0x3e5c2000	0.21496582
24	0x3eca2000	0.3947754
25	0x3d47a000	0.048736572
26	0x3d4b4000	0.049621582
27	0xbdad4000	-0.08459473
28	0x3c736000	0.014854431
29	0x3f99a000	1.2001953
30	0xbf5e8000	-0.8691406
31	0xc0622000	-3.5332031
32	0x3e9a4000	0.30126953
33	0x3e81e000	0.2536621
34	0x3c230000	0.0099487305
35	0x3e790000	0.24316406
36	0xbefb2000	-0.49047852
37	0xbf79c000	-0.97558594
38	0x3e874000	0.26416016
39	0xbdfb0000	-0.122558594
40	0x3ea84000	0.32861328
41	0x4004c000	2.0742188
42	0x3f75a000	0.95947266
43	0x3e42a000	0.19006348
44	0x3fe7e000	1.8115234
45	0x3d3e6000	0.04647827
46	0xbe64a000	-0.2232666
47	0xbf30e000	-0.69091797
48	0x3f7a6000	0.97802734
49	0x408de000	4.4335938
50	0xbe648000	-0.22314453
51	0xbe7f6000	-0.24938965
52	0xbf0ea000	-0.5571289
53	0x3eef4000	0.46728516
54	0xbfa6a000	-1.3017578
55	0xbd20c000	-0.039245605
56	0x3d9e0000	0.07714844
57	0x3e382000	0.17980957
58	0xc0ba0000	-5.8125
59	0xbf9dc000	-1.2324219
60	0xbe2b4000	-0.16723633
61	0xbe228000	-0.1586914
62	0x3eede000	0.4645996
63	0x3f276000	0.6538086
64	0xbdd2c000	-0.10290527
65	0xbe724000	-0.23657227
66	0x3f760000	0.9609375
67	0xc0966000	-4.6992188
68	0x3f086000	0.53271484
69	0x3ee82000	0.45336914
70	0x3f5e6000	0.86865234
71	0x3f8e2000	1.1103516
72	0xbfa2c000	-1.2714844
73	0xbf988000	-1.1914062
74	0xbf7c0000	-0.984375
75	0xbfeda000	-1.8564453
76	0xbecfe000	-0.40600586
77	0x3f032000	0.51220703
78	0xbe674000	-0.22583008
79	0x3f954000	1.1660156
80	0x3fbb4000	1.4628906
81	0xbef96000	-0.48706055
82	0xbf01a000	-0.50634766
83	0xbdf6e000	-0.12054443
84	0xbebd2000	-0.36938477
85	0x4086a000	4.2070312
86	0x3f73e000	0.9526367
87	0x3f61e000	0.8823242
88	0x3f0ce000	0.55029297
89	0x3ebfc000	0.37451172
90	0xbfb22000	-1.3916016
91	0xbec2c000	-0.3803711
92	0x3f0e6000	0.55615234
93	0x3f66e000	0.90185547
94	0xbfdac000	-1.7089844
95	0x3deaa000	0.11456299
96	0x3fd8e000	1.6943359
97	0x40268000	2.6015625
98	0x3d96e000	0.07366943
99	0x3fae4000	1.3613281
100	0x401be000	2.4355469
101	0x3fdd6000	1.7294922
102	0x3fc34000	1.5253906
103	0x40168000	2.3515625
104	0x3fc46000	1.5341797
105	0x3efa4000	0.48876953
106	0xc0926000	-4.5742188
107	0xbe094000	-0.1340332
108	0x3ad02000	0.0015878677
109	0x3f058000	0.5214844
110	0xbf578000	-0.8417969
111	0xbce4e000	-0.027938843
112	0x40616000	3.5214844
113	0xbeae4000	-0.34033203
114	0x3f142000	0.5786133
115	0x3e930000	0.28710938
116	0xbf3fc000	-0.74902344
117	0xbee46000	-0.44604492
118	0xc096a000	-4.7070312
119	0xbff94000	-1.9472656
120	0xbf4c6000	-0.79833984
121	0xbf4c4000	-0.79785156
122	0xc01ca000	-2.4472656
123	0xbe8f6000	-0.2800293
124	0x3e878000	0.26464844
125	0x3f14a000	0.5805664
126	0xbf3c6000	-0.73583984
127	0x3f51a000	0.81884766
128	0xbeaca000	-0.3371582
129	0xbfdde000	-1.7333984
130	0x3f5f8000	0.8730469
131	0xbf38c000	-0.7216797
132	0xbfa1a000	-1.2626953
133	0xbfd54000	-1.6660156
134	0xbf094000	-0.5361328
135	0x3b7fe000	0.0039043427
136	0xbfa90000	-1.3203125
137	0xbea54000	-0.3227539
138	0xc05d8000	-3.4609375
139	0x3fb82000	1.4384766
140	0x3e5e4000	0.21704102
141	0xc0188000	-2.3828125
142	0xbf89a000	-1.0751953
143	0x3e04c000	0.12963867
144	0xbfb98000	-1.4492188
145	0xbfe52000	-1.7900391
146	0xbf0ba000	-0.54541016
147	0xbf6bc000	-0.92089844
148	0x409cc000	4.8984375
149	0xbf7ac000	-0.9794922
150	0xbe784000	-0.24243164
151	0x3e0be000	0.13659668
152	0x3e778000	0.24169922
153	0x3f0bc000	0.54589844
154	0x3fe60000	1.796875
155	0xbfb44000	-1.4082031
156	0x3fad8000	1.3554688
157	0x4073e000	3.8105469
158	0x3f3e4000	0.74316406
159	0xc03ea000	-2.9785156
160	0xc01c0000	-2.4375
161	0xbf712000	-0.94189453
162	0xbf8d6000	-1.1044922
163	0xbfb9a000	-1.4501953
164	0xbf252000	-0.64501953
165	0x3d5a6000	0.05331421
166	0xc074a000	-3.8222656
167	0x3eabe000	0.33569336
168	0x3ef64000	0.48095703
169	0x3e80a000	0.2512207
170	0xbea74000	-0.32666016
171	0xc00c2000	-2.1894531
172	0xc003a000	-2.0566406
173	0xbf1b0000	-0.60546875
174	0xbf54a000	-0.8305664
175	0x3f4b2000	0.79345703
176	0xbebe4000	-0.37158203
177	0x3d634000	0.055480957
178	0x402d6000	2.7089844
179	0x3f654000	0.8955078
180	0x3f1c6000	0.61083984
181	0xbead0000	-0.33789062
182	0xc000c000	-2.0117188
183	0xbf01c000	-0.50683594
184	0x40818000	4.046875
185	0xc025a000	-2.5878906
186	0xbfb56000	-1.4169922
187	0xbfb94000	-1.4472656
188	0xbec82000	-0.39086914
189	0x3f812000	1.0087891
190	0x3f8ee000	1.1162109
191	0x3e960000	0.29296875
192	0xbf9a4000	-1.2050781
193	0x3f534000	0.8251953
194	0x3fb76000	1.4326172
195	0x3f76e000	0.96435547
196	0x3e014000	0.1262207
197	0x3eee8000	0.4658203
198	0x3fa62000	1.2978516
199	0x3fbe6000	1.4873047
200	0x3fa44000	1.2832031
201	0x3efb8000	0.49121094
202	0x3f5f8000	0.8730469
203	0xbe42e000	-0.19030762
204	0xbf68e000	-0.90966797
205	0xc019e000	-2.4042969
206	0xbf686000	-0.90771484
207	0xbed1c000	-0.40966797
208	0x3da88000	0.08227539
209	0xbe778000	-0.24169922
210	0xbec88000	-0.39160156
211	0xc0976000	-4.7304688
212	0xbfa7c000	-1.3105469
213	0x3ed80000	0.421875
214	0xbf754000	-0.9580078
215	0xbdcc4000	-0.099731445
216	0x3f7f6000	0.9975586
217	0x40754000	3.8320312
218	0x40530000	3.296875
219	0x3f388000	0.7207031
220	0xbef9e000	-0.4880371
221	0x4015c000	2.3398438
222	0x3f996000	1.1982422
223	0x3ea8e000	0.32983398
224	0x3f828000	1.0195312
225	0xbea3a000	-0.31958008
226	0xc00a6000	-2.1621094
227	0x3e0e4000	0.13891602
228	0x3ffde000	1.9833984
229	0x3f980000	1.1875
230	0x3f90c000	1.1308594
231	0x3ffee000	1.9912109
232	0x3fdda000	1.7314453
233	0x3f770000	0.96484375
234	0xbeaca000	-0.3371582
235	0x3eada000	0.33911133
236	0x405c4000	3.4414062
237	0x3e2be000	0.16784668
238	0xc04b2000	-3.1738281
239	0x3f078000	0.5292969
240	0x3e890000	0.26757812
241	0xbf0d2000	-0.55126953
242	0x3d9a0000	0.07519531
243	0xbf8ec000	-1.1152344
244	0xc04fc000	-3.2460938
245	0xc0080000	-2.125
246	0x3d844000	0.064575195
247	0xc09dc000	-4.9296875
248	0x3b822000	0.0039711
249	0xbf690000	-0.91015625
250	0xc01b2000	-2.4238281
251	0xbefa8000	-0.4892578
252	0xbffce000	-1.9755859
253	0xbf68a000	-0.9086914
254	0xbf984000	-1.1894531
255	0xbfae2000	-1.3603516

const_fold_opt__883 f4 [48, 1, 3, 3]
0	0x40602000	3.5019531
1	0x4002a000	2.0410156
2	0xbf492000	-0.78564453
3	0x3fee6000	1.8623047
4	0x408b2000	4.3476562
5	0xbeac0000	-0.3359375
6	0x3dd30000	0.103027344
7	0x3f972000	1.1806641
8	0x3f978000	1.1835938
9	0xbf5d6000	-0.8647461
10	0x3f8d8000	1.1054688
11	0x40522000	3.2832031
12	0xbf0f4000	-0.5595703
13	0x3e9fa000	0.31176758
14	0x3faa8000	1.3320312
15	0xbe034000	-0.12817383
16	0xbf1be000	-0.6088867
17	0xbee8e000	-0.45483398
18	0xbf0ec000	-0.5576172
19	0xbff72000	-1.9306641
20	0xbef76000	-0.4831543
21	0x400ea000	2.2285156
22	0xc02bc000	-2.6835938
23	0xbf934000	-1.1503906
24	0xbf508000	-0.8144531
25	0x3f0aa000	0.5415039
26	0xbf594000	-0.8486328
27	0x3f958000	1.1679688
28	0x3f75e000	0.9604492
29	0xbee08000	-0.43847656
30	0xbd5b6000	-0.05355835
31	0xbfd62000	-1.6728516
32	0xbf3a6000	-0.72802734
33	0xbf98a000	-1.1923828
34	0xbf79e000	-0.9760742
35	0xbe484000	-0.19555664
36	0x3fb66000	1.4248047
37	0x3cf1a000	0.02949524
38	0xbebc6000	-0.36791992
39	0x3fdc0000	1.71875
40	0xc08f6000	-4.4804688
41	0xbfe92000	-1.8212891
42	0x3fc9c000	1.5761719
43	0x3f3dc000	0.74121094
44	0xbd560000	-0.052246094
45	0xbf146000	-0.57958984
46	0xbfef0000	-1.8671875
47	0x3d8e2000	0.06939697
48	0x400e8000	2.2265625
49	0xbd9b4000	-0.075805664
50	0x3f076000	0.5288086
51	0x4022c000	2.5429688
52	0x3fd08000	1.6289062
53	0x3d4d8000	0.0501709
54	0xbf9ca000	-1.2236328
55	0xc0226000	-2.5371094
56	0xbec6c000	-0.3881836
57	0xbfb06000	-1.3779297
58	0xc0472000	-3.1113281
59	0x3f11a000	0.56884766
60	0x3f06c000	0.5263672
61	0xbebba000	-0.36645508
62	0x3e546000	0.20739746
63	0xbf78c000	-0.9716797
64	0x3fac8000	1.3476562
65	0x3fdfe000	1.7490234
66	0xbe906000	-0.28198242
67	0xbffd2000	-1.9775391
68	0x3fcea000	1.6142578
69	0xbf1fc000	-0.62402344
70	0xc002c000	-2.0429688
71	0xbf3d4000	-0.7392578
72	0x3e118000	0.14208984
73	0xbf25c000	-0.64746094
74	0xbe382000	-0.17980957
75	0xbf058000	-0.5214844
76	0x3fb52000	1.4150391
77	0x3feae000	1.8349609
78	0x3ebb0000	0.36523438
79	0x40580000	3.375
80	0x40048000	2.0703125
81	0xbe9a4000	-0.30126953
82	0xbe7ea000	-0.24865723
83	0xbedc2000	-0.42993164
84	0xbf984000	-1.1894531
85	0xc0474000	-3.1132812
86	0xbe184000	-0.14868164
87	0xbf43e000	-0.7651367
88	0xbf030000	-0.51171875
89	0xbee12000	-0.43969727
90	0x3f2d2000	0.67626953
91	0x3e72e000	0.23718262
92	0x3e250000	0.16113281
93	0xbdd20000	-0.10253906
94	0x408f2000	4.4726562
95	0x3f9c8000	1.2226562
96	0xbfbaa000	-1.4580078
97	0x3e4a0000	0.19726562
98	0x3dcc8000	0.099853516
99	0xc06ce000	-3.7011719
100	0xc0458000	-3.0859375
101	0xbfbc4000	-1.4707031
102	0xc02f0000	-2.734375
103	0xbf2dc000	-0.67871094
104	0xbffa2000	-1.9541016
105	0xbf818000	-1.0117188
106	0xbf77e000	-0.9682617
107	0xc00d2000	-2.2050781
108	0xbfc18000	-1.5117188
109	0xbe114000	-0.1418457
110	0x3d076000	0.033050537
111	0x3e228000	0.1586914
112	0x400b2000	2.1738281
113	0xbfac0000	-1.34375
114	0xbf8c4000	-1.0957031
115	0xc04b8000	-3.1796875
116	0xc012e000	-2.2949219
117	0x3fa60000	1.296875
118	0xc00fe000	-2.2480469
119	0x3f78e000	0.97216797
120	0x3f952000	1.1650391
121	0xc0750000	-3.828125
122	0x403c0000	2.9375
123	0xbce86000	-0.028366089
124	0xbe44e000	-0.19226074
125	0x3f9ce000	1.2255859
126	0xbfa6e000	-1.3037109
127	0xc04c0000	-3.1875
128	0xbfa7a000	-1.3095703
129	0x3fc5a000	1.5439453
130	0xbf156000	-0.5834961
131	0xbf8fc000	-1.1230469
132	0x3fb86000	1.4404297
133	0x3df1e000	0.11810303
134	0xbf39c000	-0.72558594
135	0xbf3b2000	-0.73095703
136	0xbe2be000	-0.16784668
137	0xbfddc000	-1.7324219
138	0x3f856000	1.0419922
139	0xc06a8000	-3.6640625
140	0xbf9de000	-1.2333984
141	0x3f27a000	0.65478516
142	0xbf15c000	-0.58496094
143	0xbfa86000	-1.3154297
144	0xbfbd4000	-1.4785156
145	0x3e166000	0.14685059
146	0xbf568000	-0.8378906
147	0xc0616000	-3.5214844
148	0xbf720000	-0.9453125
149	0xbfd7a000	-1.6845703
150	0xbfef8000	-1.8710938
151	0xc038a000	-2.8847656
152	0xc0290000	-2.640625
153	0x3fab4000	1.3378906
154	0x3fefe000	1.8740234
155	0xbf4aa000	-0.7915039
156	0x3f9c6000	1.2216797
157	0xbfad2000	-1.3525391
158	0xc0544000	-3.3164062
159	0xbe264000	-0.16235352
160	0xbfe52000	-1.7900391
161	0xbfb52000	-1.4150391
162	0x4013a000	2.3066406
163	0x3f1c2000	0.6098633
164	0xbeb26000	-0.34838867
165	0xbe65c000	-0.22436523
166	0x404aa000	3.1660156
167	0x3fcd2000	1.6025391
168	0xbf8e6000	-1.1123047
169	0xbeb74000	-0.35791016
170	0x400ae000	2.1699219
171	0xbf8e0000	-1.109375
172	0xbedaa000	-0.42700195
173	0xbf61a000	-0.88134766
174	0x40024000	2.0351562
175	0x4002c000	2.0429688
176	0xbfa42000	-1.2822266
177	0xbebb2000	-0.36547852
178	0xbf2f4000	-0.6845703
179	0xc001e000	-2.0292969
180	0x3f5a6000	0.85302734
181	0x3f804000	1.0019531
182	0x3fa34000	1.2753906
183	0x3fb0e000	1.3818359
184	0x40170000	2.359375
185	0x3fc9e000	1.5771484
186	0x40164000	2.3476562
187	0x40560000	3.34375
188	0x40512000	3.2675781
189	0xbf22e000	-0.63623047
190	0x3eb7e000	0.35913086
191	0xbe650000	-0.22363281
192	0xc04e6000	-3.2246094
193	0x4010a000	2.2597656
194	0x3e14c000	0.14526367
195	0xbfd5a000	-1.6689453
196	0xbbba2000	-0.005680084
197	0xbe2a0000	-0.16601562
198	0xbe9f6000	-0.3112793
199	0xbe8c4000	-0.27392578
200	0xbeefa000	-0.46801758
201	0xbf256000	-0.6459961
202	0x3ed4a000	0.4152832
203	0xbf486000	-0.78271484
204	0x3ffec000	1.9902344
205	0x4021a000	2.5253906
206	0x3f42c000	0.7607422
207	0xbfde2000	-1.7353516
208	0x3f97a000	1.1845703
209	0x3f2c0000	0.671875
210	0xc03bc000	-2.9335938
211	0xbfb0c000	-1.3808594
212	0x3f29c000	0.66308594
213	0x3fc4c000	1.5371094
214	0x3f946000	1.1591797
215	0xbeb62000	-0.3557129
216	0xc00de000	-2.2167969
217	0xbf8e4000	-1.1113281
218	0x3ef44000	0.47705078
219	0x40c06000	6.0117188
220	0xbff5e000	-1.9208984
221	0xbffd4000	-1.9785156
222	0x40aa8000	5.328125
223	0x407cc000	3.9492188
224	0x3fcc2000	1.5947266
225	0x40948000	4.640625
226	0x4014a000	2.3222656
227	0xbfaf4000	-1.3691406
228	0x40616000	3.5214844
229	0x3eec4000	0.46142578
230	0xbffa0000	-1.953125
231	0x40178000	2.3671875
232	0xbfc8c000	-1.5683594
233	0x3f5c2000	0.8598633
234	0xbe73c000	-0.23803711
235	0x3fd3e000	1.6552734
236	0x405b2000	3.4238281
237	0xbfc5c000	-1.5449219
238	0x4013a000	2.3066406
239	0x3f59e000	0.8510742
240	0x3f362000	0.7114258
241	0x401b4000	2.4257812
242	0x40174000	2.3632812
243	0x3f320000	0.6953125
244	0x3f9de000	1.2333984
245	0xbf56c000	-0.8388672
246	0x40268000	2.6015625
247	0xc08aa000	-4.3320312
248	0xc00f2000	-2.2363281
249	0x3f484000	0.78222656
250	0xc02f0000	-2.734375
251	0xbf982000	-1.1884766
252	0x400d2000	2.2050781
253	0x3fc66000	1.5498047
254	0x3ff92000	1.9462891
255	0x3f8ec000	1.1152344

const_fold_opt__881 f4 [24, 1, 3, 3]
0	0x3fda0000	1.703125
1	0x400bc000	2.1835938
2	0x3f866000	1.0498047
3	0x4019c000	2.4023438
4	0x40654000	3.5820312
5	0x40116000	2.2714844
6	0x3f828000	1.0195312
7	0x408ba000	4.3632812
8	0x3f7e0000	0.9921875
9	0x3dcc4000	0.099731445
10	0xbe66a000	-0.22521973
11	0x3eb60000	0.35546875
12	0xbe388000	-0.18017578
13	0x40d10000	6.53125
14	0x405c8000	3.4453125
15	0x3edba000	0.42895508
16	0x3fd56000	1.6669922
17	0x3fb16000	1.3857422
18	0xbe9c8000	-0.30566406
19	0xbf9d8000	-1.2304688
20	0x3feb0000	1.8359375
21	0x3d140000	0.036132812
22	0xc053c000	-3.3085938
23	0x40196000	2.3964844
24	0xbee7c000	-0.45263672
25	0x3f2c6000	0.67333984
26	0x3f710000	0.94140625
27	0x3e7c2000	0.24621582
28	0x3e824000	0.25439453
29	0xbeb06000	-0.34448242
30	0xbe840000	-0.2578125
31	0xc0f56000	-7.6679688
32	0xbdc3e000	-0.09564209
33	0xbf3b8000	-0.7324219
34	0xbf164000	-0.58691406
35	0xbd9e4000	-0.07727051
36	0xbf396000	-0.7241211
37	0xc00f4000	-2.2382812
38	0xbe740000	-0.23828125
39	0xbf714000	-0.9423828
40	0xc0316000	-2.7714844
41	0xc004e000	-2.0761719
42	0x3f68c000	0.9091797
43	0xbfb5a000	-1.4189453
44	0xbfdba000	-1.7158203
45	0x3f522000	0.8208008
46	0x3faba000	1.3408203
47	0x3eb48000	0.35253906
48	0x40138000	2.3046875
49	0xc0938000	-4.609375
50	0xbc904000	-0.017608643
51	0x3f812000	1.0087891
52	0x3fb86000	1.4404297
53	0x3f2d6000	0.6772461
54	0x3f7e4000	0.99316406
55	0x4064c000	3.5742188
56	0x3ff14000	1.8847656
57	0xbe96e000	-0.29467773
58	0xbfe0c000	-1.7558594
59	0xbdfba000	-0.12286377
60	0xbf3fa000	-0.74853516
61	0xc03fc000	-2.9960938
62	0xbf9de000	-1.2333984
63	0xbf0a0000	-0.5390625
64	0xc0338000	-2.8046875
65	0xbfa0c000	-1.2558594
66	0xbeff6000	-0.4987793
67	0xc01cc000	-2.4492188
68	0xbf96e000	-1.1787109
69	0x3e8d8000	0.2763672
70	0xbb296000	-0.0025844574
71	0xbf43c000	-0.76464844
72	0x3f202000	0.6254883
73	0x3fdd0000	1.7265625
74	0x40156000	2.3339844
75	0x3fdfc000	1.7480469
76	0xbf0ba000	-0.54541016
77	0xc039c000	-2.9023438
78	0x3f11c000	0.56933594
79	0xbe516000	-0.20446777
80	0xc018e000	-2.3886719
81	0xbf1c0000	-0.609375
82	0xbe96e000	-0.29467773
83	0xbe8e8000	-0.2783203
84	0x3f2be000	0.6713867
85	0x40302000	2.7519531
86	0xbe5c0000	-0.21484375
87	0x3fdd0000	1.7265625
88	0x40640000	3.5625
89	0x3f1a8000	0.6035156
90	0x3e5a2000	0.2130127
91	0x3f020000	0.5078125
92	0xbef1c000	-0.47216797
93	0x3fafc000	1.3730469
94	0xc0a02000	-5.0039062
95	0xbf180000	-0.59375
96	0x3f936000	1.1513672
97	0xc0392000	-2.8925781
98	0xbfbb4000	-1.4628906
99	0xbdbf0000	-0.09326172
100	0xbe958000	-0.2919922
101	0x3e19c000	0.15014648
102	0x3f37c000	0.71777344
103	0x4095e000	4.6835938
104	0x3f95e000	1.1708984
105	0x3ecfa000	0.40551758
106	0xc02ae000	-2.6699219
107	0x3f634000	0.8876953
108	0x3ebc4000	0.36767578
109	0x401f8000	2.4921875
110	0x3f3f6000	0.7475586
111	0x3e088000	0.13330078
112	0x408d6000	4.4179688
113	0x3f214000	0.6298828
114	0x3e8ac000	0.2709961
115	0xbf708000	-0.9394531
116	0x3e958000	0.2919922
117	0xc0518000	-3.2734375
118	0xbef8a000	-0.4855957
119	0xc08ce000	-4.4023438
120	0x3f9b4000	1.2128906
121	0x40d72000	6.7226562
122	0xc004a000	-2.0722656
123	0x3f098000	0.5371094
124	0x3fdee000	1.7412109
125	0xc00d2000	-2.2050781
126	0x3f824000	1.0175781
127	0x3ebe2000	0.3713379
128	0x3e1a6000	0.15075684
129	0xbf522000	-0.8208008
130	0xc0324000	-2.7851562
131	0xc0798000	-3.8984375
132	0x3d844000	0.064575195
133	0xc0a72000	-5.2226562
134	0xbff42000	-1.9072266
135	0xbed7e000	-0.42163086
136	0xc07d2000	-3.9550781
137	0xbf8a8000	-1.0820312
138	0xbf316000	-0.6928711
139	0x4025a000	2.5878906
140	0xbfa06000	-1.2529297
141	0xbf87e000	-1.0615234
142	0xbfcee000	-1.6162109
143	0x3edb6000	0.4284668
144	0x3f204000	0.62597656
145	0x4038a000	2.8847656
146	0x3fb20000	1.390625
147	0x3d4de000	0.05026245
148	0xc0556000	-3.3339844
149	0x3f016000	0.5053711
150	0xbe7e0000	-0.24804688
151	0xbfc94000	-1.5722656
152	0xbeeee000	-0.46655273
153	0x3f3ce000	0.73779297
154	0x40670000	3.609375
155	0x3fbd8000	1.4804688
156	0x3f996000	1.1982422
157	0xbff5a000	-1.9189453
158	0xbf4e8000	-0.8066406
159	0xbec48000	-0.38378906
160	0xc030e000	-2.7636719
161	0xbfb42000	-1.4072266
162	0xbffae000	-1.9599609
163	0xc019e000	-2.4042969
164	0xbff02000	-1.8759766
165	0xbf2a6000	-0.66552734
166	0x3f298000	0.6621094
167	0x3f98c000	1.1933594
168	0xbd6ec000	-0.058288574
169	0x401aa000	2.4160156
170	0x4049c000	3.1523438
171	0xbf65a000	-0.89697266
172	0x3ffbc000	1.9667969
173	0x3c00c000	0.007858276
174	0x3f174000	0.5908203
175	0x40bbc000	5.8671875
176	0x40186000	2.3808594
177	0x3e46a000	0.19396973
178	0x40154000	2.3320312
179	0x3fbaa000	1.4580078
180	0xbe962000	-0.2932129
181	0xbef60000	-0.48046875
182	0xbd566000	-0.052337646
183	0x3f064000	0.52441406
184	0x3d2ee000	0.04269409
185	0x3ebf6000	0.3737793
186	0x3f562000	0.8364258
187	0x40c2c000	6.0859375
188	0x3f5e8000	0.8691406
189	0xbe0a4000	-0.13500977
190	0xbe02a000	-0.12756348
191	0x3f178000	0.5917969
192	0xbec94000	-0.3930664
193	0xc0df2000	-6.9726562
194	0xbf3f4000	-0.7470703
195	0xbe332000	-0.17492676
196	0x3f464000	0.77441406
197	0x3e18e000	0.14929199
198	0x3ec00000	0.375
199	0xbf79e000	-0.9760742
200	0xbfbdc000	-1.4824219
201	0x3e1b4000	0.15161133
202	0x3fbc0000	1.46875
203	0xbf91c000	-1.1386719
204	0xbe8c0000	-0.2734375
205	0x403ca000	2.9472656
206	0x3f88c000	1.0683594
207	0xbe7a6000	-0.24450684
208	0x3e4a6000	0.19763184
209	0x3eba0000	0.36328125
210	0x4016a000	2.3535156
211	0xc07d8000	-3.9609375
212	0x3f32c000	0.6982422
213	0x3f530000	0.82421875
214	0x3fd1e000	1.6396484
215	0x3e838000	0.25683594

const_fold_opt__880 f4 [24, 3, 5, 5]
0	0x3b0c0000	0.0021362305
1	0x3b166000	0.0022945404
2	0xbb328000	-0.0027236938
3	0x3a892000	0.0010461807
4	0x3b904000	0.0044021606
5	0x3b132000	0.0022449493
6	0x3b8d8000	0.0043182373
7	0xbad96000	-0.0016584396
8	0xb9a98000	-0.0003232956
9	0x3b7a2000	0.0038166046
10	0x377e0000	1.513958e-05
11	0x3b456000	0.0030117035
12	0xbbe1e000	-0.006893158
13	0xbc048000	-0.008087158
14	0xbb98e000	-0.0046653748
15	0x3ad12000	0.0015954971
16	0x3b640000	0.003479004
17	0xbc20c000	-0.009811401
18	0xbc330000	-0.010925293
19	0xbaf00000	-0.0018310547
20	0x3a28c000	0.00064373016
21	0x3b81c000	0.0039596558
22	0xbc28c000	-0.010299683
23	0xbab0a000	-0.0013475418
24	0x3bb08000	0.0053863525
25	0xbadb2000	-0.0016717911
26	0xbac74000	-0.0015201569
27	0xbb508000	-0.0031814575
28	0x39292000	0.00016129017
29	0x3accc000	0.0015621185
30	0xbab6e000	-0.0013952255
31	0x3afcc000	0.0019283295
32	0x39298000	0.0001616478
33	0x3af90000	0.0018997192
34	0x3b80c000	0.003929138
35	0xbb254000	-0.002521515
36	0x3ab3c000	0.0013713837
37	0xbb350000	-0.0027618408
38	0xbb53a000	-0.0032291412
39	0xb9512000	-0.00019943714
40	0xba048000	-0.0005054474
41	0x3b550000	0.003250122
42	0xbb850000	-0.004058838
43	0xbbaa2000	-0.005191803
44	0x3a128000	0.00055885315
45	0xba808000	-0.0009803772
46	0x3b524000	0.0032081604
47	0xbb9cc000	-0.0047836304
48	0x3a8e2000	0.0010843277
49	0x3b12a000	0.00223732
50	0xbb10e000	-0.002210617
51	0xba8ce000	-0.001074791
52	0xbb41a000	-0.002954483
53	0x3941c000	0.0001847744
54	0x3a5bc000	0.0008382797
55	0xba8d6000	-0.0010786057
56	0x3b088000	0.0020828247
57	0x390ee000	0.00013625622
58	0x3adfe000	0.0017080307
59	0x3b0c0000	0.0021362305
60	0xbafa6000	-0.0019102097
61	0x3add0000	0.0016860962
62	0xbaf8e000	-0.0018987656
63	0xbb1c6000	-0.0023860931
64	0xba5b4000	-0.0008363724
65	0xb9782000	-0.00023663044
66	0x3b38a000	0.002817154
67	0xbb79a000	-0.0038089752
68	0xbb87a000	-0.0041389465
69	0x3a674000	0.00088214874
70	0xba5e4000	-0.00084781647
71	0x3b17a000	0.002313614
72	0xbb92c000	-0.0044784546
73	0x3b142000	0.0022602081
74	0x3a9c8000	0.0011940002
75	0xbd264000	-0.04058838
76	0xbe200000	-0.15625
77	0xbf394000	-0.7236328
78	0x3e854000	0.2602539
79	0x3d908000	0.07055664
80	0xbca22000	-0.01979065
81	0x3f1fc000	0.62402344
82	0x40034000	2.0507812
83	0xbf96a000	-1.1767578
84	0x3d772000	0.060333252
85	0xbe392000	-0.18078613
86	0xbf180000	-0.59375
87	0xc0026000	-2.0371094
88	0x3e7f2000	0.24914551
89	0xbddd6000	-0.10809326
90	0x3d4d0000	0.050048828
91	0x3ecd2000	0.40063477
92	0x3ece8000	0.4033203
93	0x3edb2000	0.42797852
94	0x3dbf2000	0.093322754
95	0xbe01a000	-0.12658691
96	0xbdcd8000	-0.1003418
97	0xbe7ac000	-0.24487305
98	0xbe140000	-0.14453125
99	0xbd8be000	-0.06829834
100	0x3dcc2000	0.09967041
101	0xbdd32000	-0.10308838
102	0xbf62e000	-0.88623047
103	0x3d062000	0.03274536
104	0x3e446000	0.19177246
105	0x3e896000	0.26831055
106	0x3f52c000	0.8232422
107	0x404a8000	3.1640625
108	0xbf4e4000	-0.80566406
109	0x3e2d8000	0.1694336
110	0xbd7ec000	-0.062194824
111	0xbf37a000	-0.71728516
112	0xc00c8000	-2.1953125
113	0x3e872000	0.26391602
114	0xbe5bc000	-0.21459961
115	0x3e3fa000	0.18713379
116	0x3eb6a000	0.35668945
117	0x3e55a000	0.20861816
118	0x3e772000	0.24133301
119	0x3e2e6000	0.17028809
120	0x3d422000	0.0473938
121	0x3d6c6000	0.05770874
122	0x3d8ec000	0.06970215
123	0x3cf74000	0.030181885
124	0x3d952000	0.07281494
125	0xbe4d0000	-0.20019531
126	0xbe8e2000	-0.2775879
127	0xbf41a000	-0.75634766
128	0xbdbaa000	-0.09112549
129	0xbda8e000	-0.082458496
130	0x3e588000	0.21142578
131	0x3e24c000	0.16088867
132	0x400dc000	2.2148438
133	0xbe1f0000	-0.15527344
134	0x3eb26000	0.34838867
135	0xbe046000	-0.12927246
136	0xbf032000	-0.51220703
137	0xbfb7c000	-1.4355469
138	0x3f012000	0.50439453
139	0xbec06000	-0.37573242
140	0x3e6dc000	0.23217773
141	0x3ee2c000	0.4428711
142	0x3ebe0000	0.37109375
143	0xbd09c000	-0.03363037
144	0x3da04000	0.07824707
145	0xbdf06000	-0.117370605
146	0xbe742000	-0.23840332
147	0xbe27a000	-0.16369629
148	0xbe7b6000	-0.2454834
149	0xbde0e000	-0.109802246
150	0xbd856000	-0.06512451
151	0xbc836000	-0.016036987
152	0x3cd18000	0.02557373
153	0x3d67c000	0.05657959
154	0x3c492000	0.012275696
155	0xbc5c0000	-0.013427734
156	0xbd0b8000	-0.034057617
157	0x3c7ca000	0.015419006
158	0x3dce4000	0.10070801
159	0x3e28a000	0.16467285
160	0x3c36c000	0.011154175
161	0x3b9a4000	0.0047073364
162	0x3cddc000	0.027069092
163	0x3da54000	0.08068848
164	0x3e7fe000	0.24987793
165	0x3bb0c000	0.005393982
166	0xbcc22000	-0.0236969
167	0xbc800000	-0.015625
168	0x3c9fe000	0.019515991
169	0x3e054000	0.13012695
170	0x3c250000	0.010070801
171	0x3d194000	0.03741455
172	0xbcaa0000	-0.020751953
173	0xbd09c000	-0.03363037
174	0x3cf7e000	0.030258179
175	0xbd328000	-0.0435791
176	0x3c038000	0.008026123
177	0x3d908000	0.07055664
178	0x3dc1a000	0.09454346
179	0x3b45e000	0.003019333
180	0xbca78000	-0.020446777
181	0xbd016000	-0.031585693
182	0x3c33c000	0.010971069
183	0xbd04e000	-0.032440186
184	0xbdc42000	-0.09576416
185	0x3c5f0000	0.01361084
186	0x3d25a000	0.04043579
187	0x3d43e000	0.047821045
188	0xbdfce000	-0.12347412
189	0xbe190000	-0.14941406
190	0xbd2c2000	-0.042022705
191	0x3c42a000	0.011878967
192	0x3d170000	0.036865234
193	0xbc730000	-0.014831543
194	0xbdc96000	-0.09832764
195	0xbd70a000	-0.058746338
196	0x3d12e000	0.035858154
197	0x3cc60000	0.024169922
198	0xbc31c000	-0.010848999
199	0xbb610000	-0.0034332275
200	0x3d044000	0.032287598
201	0x3d17c000	0.03704834
202	0x3d764000	0.06011963
203	0x3d966000	0.07342529
204	0xbb50e000	-0.0031871796
205	0x3d12a000	0.03579712
206	0xbcda6000	-0.026657104
207	0xbdcd8000	-0.1003418
208	0xbe482000	-0.19543457
209	0xbea4e000	-0.32202148
210	0x3d8a4000	0.06750488
211	0x3d87e000	0.066345215
212	0xbd448000	-0.047973633
213	0xbe9bc000	-0.30419922
214	0xbedb2000	-0.42797852
215	0xbc67e000	-0.014152527
216	0x3c706000	0.014671326
217	0xbc576000	-0.013145447
218	0xbdb46000	-0.08807373
219	0xbe5f8000	-0.21826172
220	0xbd326000	-0.043548584
221	0x3ce38000	0.027770996
222	0xbb744000	-0.0037269592
223	0xbd152000	-0.03640747
224	0xbc930000	-0.017944336
225	0xbb654000	-0.0034980774
226	0xbd02c000	-0.031921387
227	0xbe93e000	-0.28881836
228	0xbe69a000	-0.22814941
229	0xbe180000	-0.1484375
230	0xbd566000	-0.052337646
231	0xbe8dc000	-0.27685547
232	0xbf65a000	-0.89697266
233	0xbead4000	-0.3383789
234	0xbf1ac000	-0.6044922
235	0x3b112000	0.0022144318
236	0xbeece000	-0.46264648
237	0x3e09e000	0.13464355
238	0x4017a000	2.3691406
239	0x3f610000	0.87890625
240	0x3d540000	0.051757812
241	0xbe788000	-0.24267578
242	0x3e5d2000	0.21594238
243	0x3f666000	0.89990234
244	0x3dc98000	0.09838867
245	0x3e56c000	0.2097168
246	0xbe0d0000	-0.13769531
247	0xbe62e000	-0.22155762
248	0x3ce30000	0.027709961
249	0xbd064000	-0.03277588
250	0xbbd06000	-0.0063591003
251	0xbc99a000	-0.018753052
252	0xbe8e8000	-0.2783203
253	0xbe054000	-0.13012695
254	0x3c3ce000	0.011528015
255	0x3d696000	0.05697632

const_fold_opt__878 f4 [96, 1, 3, 3]
0	0x3f4de000	0.8041992
1	0xc097c000	-4.7421875
2	0xbff06000	-1.8779297
3	0x3ea5a000	0.32348633
4	0xc0a34000	-5.1015625
5	0x3eb1c000	0.34716797
6	0x3f572000	0.84033203
7	0x3efb4000	0.49072266
8	0x3e7c6000	0.24645996
9	0x405be000	3.4355469
10	0xbe36a000	-0.17834473
11	0xbe962000	-0.2932129
12	0x4077a000	3.8691406
13	0x3faba000	1.3408203
14	0xbf8f4000	-1.1191406
15	0x409f8000	4.984375
16	0x3e36a000	0.17834473
17	0x3f874000	1.0566406
18	0x4002a000	2.0410156
19	0x3f862000	1.0478516
20	0x3eba8000	0.3642578
21	0xbffa0000	-1.953125
22	0x4081e000	4.0585938
23	0xbe9be000	-0.30444336
24	0xbfb4c000	-1.4121094
25	0x3eae4000	0.34033203
26	0x3e57c000	0.21069336
27	0x403c2000	2.9394531
28	0x3fa3c000	1.2792969
29	0x3ea46000	0.32104492
30	0x401f2000	2.4863281
31	0xbec4c000	-0.38427734
32	0xbf82e000	-1.0224609
33	0x3f57e000	0.8432617
34	0xbf6fe000	-0.9370117
35	0xbf270000	-0.65234375
36	0x3f926000	1.1435547
37	0xbe102000	-0.14074707
38	0xc02d8000	-2.7109375
39	0x40730000	3.796875
40	0x40626000	3.5371094
41	0x3f532000	0.82470703
42	0xc07dc000	-3.9648438
43	0xbf442000	-0.7661133
44	0xc02c8000	-2.6953125
45	0x3f8dc000	1.1074219
46	0xc006a000	-2.1035156
47	0x3ee46000	0.44604492
48	0xbff70000	-1.9296875
49	0xc0b3a000	-5.6132812
50	0xbe8e0000	-0.27734375
51	0xbdc54000	-0.09631348
52	0xbcdf6000	-0.027267456
53	0x3e674000	0.22583008
54	0xbd8d4000	-0.06896973
55	0x3e07a000	0.13244629
56	0x3e382000	0.17980957
57	0x3d5c0000	0.053710938
58	0x4075a000	3.8378906
59	0xbe8c8000	-0.27441406
60	0x3e312000	0.17297363
61	0x3ea8c000	0.32958984
62	0xbed6c000	-0.4194336
63	0x3e2d0000	0.16894531
64	0x401b4000	2.4257812
65	0x3f5be000	0.8588867
66	0x3f83e000	1.0302734
67	0x40e14000	7.0390625
68	0x400e0000	2.21875
69	0x3e448000	0.19189453
70	0x3f4e2000	0.8051758
71	0x3fcc0000	1.59375
72	0xbe9f4000	-0.31103516
73	0x3f5a8000	0.8535156
74	0xbf2a4000	-0.66503906
75	0x3fcc2000	1.5947266
76	0x40aa2000	5.3164062
77	0xbf916000	-1.1357422
78	0x3fc2a000	1.5205078
79	0x3ec64000	0.38720703
80	0xbf408000	-0.7519531
81	0x404b4000	3.1757812
82	0x40b4a000	5.6445312
83	0x3eb88000	0.36035156
84	0x40c7a000	6.2382812
85	0x41492000	12.5703125
86	0x4084e000	4.1523438
87	0x40838000	4.109375
88	0x40d4a000	6.6445312
89	0x40878000	4.234375
90	0x3fbc0000	1.46875
91	0x3faa0000	1.328125
92	0xbecca000	-0.3996582
93	0x3ef38000	0.47558594
94	0x4041a000	3.0253906
95	0xbe32a000	-0.17443848
96	0xbf068000	-0.5253906
97	0xbebd6000	-0.36987305
98	0x3ef0a000	0.4699707
99	0xbf7be000	-0.9838867
100	0xbf532000	-0.82470703
101	0xbee32000	-0.44360352
102	0xbfc54000	-1.5410156
103	0xc01d6000	-2.4589844
104	0xbf2aa000	-0.6665039
105	0xbd6fc000	-0.058532715
106	0xbfbf6000	-1.4951172
107	0xbd8d2000	-0.06890869
108	0xbe60e000	-0.21960449
109	0xbf2d2000	-0.67626953
110	0xbf168000	-0.5878906
111	0xbf14c000	-0.5810547
112	0x40a34000	5.1015625
113	0xbeb02000	-0.34399414
114	0xbed62000	-0.4182129
115	0xbf9ae000	-1.2099609
116	0xbde5e000	-0.11224365
117	0x3f22c000	0.6357422
118	0x40272000	2.6113281
119	0x3f25a000	0.64697266
120	0x3f186000	0.59521484
121	0xc0b56000	-5.6679688
122	0xbcc4a000	-0.024002075
123	0x3dc26000	0.09490967
124	0x3ee7a000	0.45239258
125	0xbe234000	-0.15942383
126	0x3fac2000	1.3447266
127	0x4012a000	2.2910156
128	0xbf5ea000	-0.8696289
129	0x3f9a8000	1.2070312
130	0x40d88000	6.765625
131	0xbf65a000	-0.89697266
132	0xbfac6000	-1.3466797
133	0xbfec8000	-1.8476562
134	0xc03d0000	-2.953125
135	0x3f9cc000	1.2246094
136	0x3f9b6000	1.2138672
137	0xbdaf2000	-0.085510254
138	0xbef00000	-0.46875
139	0x41080000	8.5
140	0x3eb9e000	0.3630371
141	0x3da36000	0.07977295
142	0xbfa1c000	-1.2636719
143	0xbee9a000	-0.45629883
144	0xbed6a000	-0.41918945
145	0xbf5b8000	-0.8574219
146	0xbf8e4000	-1.1113281
147	0x3f70e000	0.94091797
148	0x40908000	4.515625
149	0xbf79c000	-0.97558594
150	0xbe9e6000	-0.30932617
151	0x3f0f8000	0.5605469
152	0xbf818000	-1.0117188
153	0x3eeb6000	0.4597168
154	0x3e2ba000	0.16760254
155	0xbf8de000	-1.1083984
156	0x3fbd8000	1.4804688
157	0xc0814000	-4.0390625
158	0xc028e000	-2.6386719
159	0x3e444000	0.19165039
160	0xc0120000	-2.28125
161	0xbf768000	-0.9628906
162	0xbf1e4000	-0.61816406
163	0x3f256000	0.6459961
164	0x40260000	2.59375
165	0xbfe04000	-1.7519531
166	0xbffe4000	-1.9863281
167	0x3fdc4000	1.7207031
168	0x3f594000	0.8486328
169	0x3f86e000	1.0537109
170	0x407ae000	3.9199219
171	0xbef52000	-0.47875977
172	0x3fe76000	1.8076172
173	0xbe6e4000	-0.23266602
174	0xbf6d2000	-0.92626953
175	0x3fa54000	1.2910156
176	0x3f6e0000	0.9296875
177	0xbf178000	-0.5917969
178	0xbfcbc000	-1.5917969
179	0xbf8c4000	-1.0957031
180	0x3f80e000	1.0068359
181	0x408cc000	4.3984375
182	0x40106000	2.2558594
183	0x40048000	2.0703125
184	0x40918000	4.546875
185	0x3f4b6000	0.7944336
186	0x3eef2000	0.46704102
187	0x3f014000	0.5048828
188	0x3f15a000	0.58447266
189	0x40100000	2.25
190	0xbe820000	-0.25390625
191	0x402f2000	2.7363281
192	0x3fecc000	1.8496094
193	0xc09de000	-4.9335938
194	0x40194000	2.3945312
195	0x40a14000	5.0390625
196	0xbe604000	-0.21899414
197	0x404d2000	3.2050781
198	0x3fbd4000	1.4785156
199	0x400d2000	2.2050781
200	0xbfa6e000	-1.3037109
201	0xbf56c000	-0.8388672
202	0xc0ad4000	-5.4140625
203	0xbf46c000	-0.7763672
204	0xbf380000	-0.71875
205	0xc0036000	-2.0527344
206	0xbf924000	-1.1425781
207	0x4073a000	3.8066406
208	0xbfad6000	-1.3544922
209	0xc0b2a000	-5.5820312
210	0x3fdca000	1.7236328
211	0x3e80a000	0.2512207
212	0xc0e8c000	-7.2734375
213	0xbfca2000	-1.5791016
214	0xc0326000	-2.7871094
215	0xc0dce000	-6.9023438
216	0xbe1ae000	-0.15124512
217	0xbf362000	-0.7114258
218	0xc003a000	-2.0566406
219	0xbe3f6000	-0.18688965
220	0xc075a000	-3.8378906
221	0xc04a0000	-3.15625
222	0xbf9a6000	-1.2060547
223	0xc0290000	-2.640625
224	0xc0168000	-2.3515625
225	0xc124c000	-10.296875
226	0xc1662000	-14.3828125
227	0xc1b38000	-22.4375
228	0xbf904000	-1.1269531
229	0xc0904000	-4.5078125
230	0xc095a000	-4.6757812
231	0x40e1c000	7.0546875
232	0x3ff96000	1.9482422
233	0xc02d2000	-2.7050781
234	0x40148000	2.3203125
235	0x3fb22000	1.3916016
236	0xbd4a0000	-0.049316406
237	0x40064000	2.0976562
238	0xc1048000	-8.28125
239	0x3e008000	0.12548828
240	0x3f654000	0.8955078
241	0xbec34000	-0.38134766
242	0x3f4d6000	0.8022461
243	0x3e86e000	0.26342773
244	0x4040e000	3.0136719
245	0x3fc8c000	1.5683594
246	0x3fada000	1.3564453
247	0x3fc22000	1.5166016
248	0x3edda000	0.43286133
249	0x3f088000	0.5332031
250	0x3f8ec000	1.1152344
251	0xbefca000	-0.4934082
252	0x3e52e000	0.20593262
253	0x3d834000	0.064086914
254	0x3fce8000	1.6132812
255	0x3fb12000	1.3837891
